navigation/vector_banana_checkpoint.pth (torch_old, 9527 bytes, 6 tensors)

seq.l0.weight f4 [32, 37]
0	0xbd361a42	-0.044458635
1	0x3e31a52a	0.17348161
2	0xbe0ae2b5	-0.13563044
3	0xbeca9943	-0.39570054
4	0xbea3cc28	-0.31991696
5	0xbe49a941	-0.19693471
6	0x3c4c780c	0.012479793
7	0x3d6a70a0	0.057236314
8	0xbda39f3f	-0.07989358
9	0xbd6d5d2d	-0.057950187
10	0xbd144a2d	-0.036203552
11	0xbe71e432	-0.23622206
12	0xbde9a73b	-0.1140885
13	0xbe099e82	-0.13439372
14	0xbed4c090	-0.41553164
15	0xbe9ab58d	-0.30216637
16	0x3df89cf7	0.12139314
17	0x3eb1ccd8	0.34726596
18	0xbf016b52	-0.5055438
19	0x3d9f02b8	0.077641904
20	0xbdb6dc21	-0.08928705
21	0x3dfb4959	0.12269849
22	0x3d22be90	0.039732516
23	0x3d738bb7	0.059459414
24	0x3c213129	0.009838381
25	0xbda050be	-0.078279
26	0x3dcd92e1	0.100377806
27	0xbb94e187	-0.0045434865
28	0xbe40b1e7	-0.18817864
29	0xbde3b423	-0.11118343
30	0xbdcb703c	-0.099335164
31	0xbe0a1dde	-0.13487956
32	0xbe3a9814	-0.18222076
33	0x3e854b08	0.26033807
34	0xbdfee1a3	-0.124453805
35	0xbe7c57e3	-0.24642901
36	0xbdda3190	-0.106539845
37	0x3d775c09	0.060390506
38	0x3dbc93dd	0.0920789
39	0x39bc6a16	0.00035937194
40	0xbca1bbe6	-0.019742917
41	0xbc346e67	-0.01101265
42	0xbe2f267d	-0.17104526
43	0xbe55faca	-0.2089645
44	0x3d09da10	0.033655226
45	0x3a56776c	0.00081812474
46	0x3e4809b9	0.19534959
47	0x3d7dcbec	0.061962053
48	0xbd205800	-0.039146423
49	0xbdcc294f	-0.099688165
50	0xbd291c65	-0.041286845
51	0x3d4dabb4	0.050212577
52	0x3d77fb7d	0.060542572
53	0xbc7ca2ac	-0.015419643
54	0xbc398121	-0.011322291
55	0xbe0e62d3	-0.13904886
56	0xbab97bac	-0.0014151237
57	0xbe339ee2	-0.17541078
58	0xbe0b667b	-0.13613312
59	0xbe287212	-0.16449764
60	0xbdcc4bcb	-0.09975394
61	0xbd2e021d	-0.042482484
62	0xbe2c5da2	-0.16832593
63	0x3dd8e6f2	0.10590924
64	0xbc60a4ed	-0.013711196
65	0xbdf849ef	-0.12123477
66	0xbdb902b1	-0.090337165
67	0xbd5ab5f1	-0.05339617
68	0x3e2832b0	0.16425586
69	0x3df07757	0.11741512
70	0xbe92303f	-0.28552434
71	0xbe6e858a	-0.23293129
72	0xbd931837	-0.07182353
73	0x3deec712	0.116590634
74	0x3e16bee3	0.14721255
75	0x3d2ed623	0.042684685
76	0x3eb65c8d	0.35617486
77	0xbef2c4ff	-0.4741592
78	0xbe94af64	-0.29040062
79	0xbe96c5e4	-0.29447854
80	0xbe8006b6	-0.2500512
81	0x3ed05573	0.40690193
82	0x3e7a3314	0.24433547
83	0xbf4aa9db	-0.7916543
84	0xbd5f82e7	-0.054568198
85	0xbd2179cb	-0.03942279
86	0x3e2af8ae	0.16696426
87	0xbe6ce30e	-0.2313349
88	0xbe26a8c8	-0.16275322
89	0x3dbf41b6	0.09338705
90	0x3d4c5768	0.049888045
91	0x3e2636ca	0.16231838
92	0x3e1f1983	0.15537076
93	0xbe8af687	-0.2714121
94	0xbeaa6c74	-0.33285868
95	0x3df151b9	0.117831655
96	0x3e4982ab	0.19678752
97	0xbe12bfcf	-0.14330982
98	0xbe2554e7	-0.16145669
99	0x3c4e286c	0.0125828795
100	0x3e117df6	0.14208207
101	0x3e65c287	0.22437488
102	0x3b937be9	0.004500855
103	0xbf29e9f0	-0.66372585
104	0xbe92a550	-0.28641748
105	0xbe35ce2b	-0.17754428
106	0x3e819233	0.25306854
107	0xbec641e3	-0.38722143
108	0xbefd79cf	-0.49506995
109	0xbd9f8c3b	-0.07790419
110	0xbc801055	-0.015632788
111	0x3e6f169c	0.23348469
112	0x3e043a12	0.12912777
113	0x3e9c3338	0.30507827
114	0x3dd22f35	0.1026291
115	0xbd03d392	-0.03218419
116	0x3e600fcb	0.21881025
117	0x3e54a7cf	0.20767139
118	0x3d9ea28f	0.07745849
119	0x3ceb9776	0.028758746
120	0x3cc51369	0.024057107
121	0x3e1f4fd7	0.155578
122	0x3d2df041	0.042465452
123	0x3e21e2f3	0.1580923
124	0x3d8390ba	0.06424089
125	0xbe41b0e9	-0.18915142
126	0x3dad6b89	0.08467776
127	0x3dfe9686	0.12431054
128	0x3b97a60b	0.004627948
129	0x3c9af2a0	0.01891452
130	0xbd30d25b	-0.04316936
131	0x3e7d9699	0.2476448
132	0x3c87b601	0.016566278
133	0x3d9af371	0.07565964
134	0x3e1e6831	0.15469433
135	0xbdd0b8cf	-0.101914994
136	0x3e493c46	0.19651899
137	0x3e0c0861	0.13675071
138	0x3dc20a0d	0.09474573
139	0x3e2d00c8	0.1689483
140	0x3c8ec994	0.017430104
141	0x3eaa97ca	0.3331893
142	0x3e80fb40	0.2519169
143	0x3de3f7f5	0.111312784
144	0xbdfdbd92	-0.12389673
145	0xbe9687d8	-0.29400516
146	0x3d0c96d4	0.03432353
147	0xbcf95069	-0.03043385
148	0xbcac92f3	-0.021066165
149	0xbdc7106f	-0.09719931
150	0xbde4554b	-0.11149081
151	0x3d09d59b	0.033650976
152	0xbdc26e21	-0.09493662
153	0x3ec76043	0.3894063
154	0xbd3bab63	-0.045817744
155	0xbec54568	-0.38529515
156	0xbe0dedc7	-0.13860236
157	0xbf4f1d34	-0.80903935
158	0xbd956263	-0.072941564
159	0x3cc8ad37	0.024496658
160	0x3d99110f	0.07473957
161	0x3cfaec4b	0.030630251
162	0x3c03232c	0.008003991
163	0x3b8eec9c	0.004361702
164	0x3c801a55	0.015637556
165	0x3d8c8a67	0.06862336
166	0xbda0ca87	-0.07851129
167	0x3e2b6bfa	0.16740409
168	0x3d01dcf1	0.031704847
169	0xbcebcf49	-0.028785365
170	0x3db051b1	0.086093314
171	0x3e328d40	0.17436695
172	0x3e86f941	0.2636204
173	0x3e1c70e0	0.15277433
174	0xbd434efc	-0.047682747
175	0x3e00d3fa	0.12580863
176	0xbad67abf	-0.0016363485
177	0x3d472767	0.04862156
178	0x3e313dd0	0.17308736
179	0xbdfb7742	-0.12278606
180	0x3d55353b	0.052052718
181	0x3e48235d	0.1954474
182	0x3eee920e	0.46595806
183	0x3d3ce498	0.04611644
184	0x3ca3284a	0.019916672
185	0xbd746fb1	-0.05967683
186	0xbe0bff90	-0.13671708
187	0x3dc2a669	0.095043965
188	0xbd6246c7	-0.05524328
189	0xbdb1667e	-0.08662127
190	0x3d71b197	0.059007253
191	0x3c134fa8	0.0089911595
192	0x3da36bf9	0.079795785
193	0xba363765	-0.00069510035
194	0xbefef640	-0.4979725
195	0xbeb5bd24	-0.35495865
196	0xbd2a0573	-0.041509103
197	0x3d7832af	0.06059521
198	0x3e375a1e	0.1790547
199	0xbe6a2f2d	-0.22869559
200	0xbe69c16a	-0.22827688
201	0x3db48cb0	0.088158965
202	0x3db3c89a	0.08778496
203	0xbe411e7c	-0.18859285
204	0xbde21ece	-0.11041032
205	0xbdcaaf7a	-0.09896751
206	0x3d5fe6e0	0.05466354
207	0x3e235282	0.15949443
208	0x3d25acf6	0.04044815
209	0xbdb733d6	-0.08945434
210	0x3dcc292a	0.09968789
211	0xbdb25f39	-0.087095685
212	0xbd722ec0	-0.059126616
213	0xbd42e895	-0.04758509
214	0xbf234fd8	-0.63793707
215	0xbe515964	-0.20444256
216	0x3dcaca53	0.099018715
217	0xbe005d68	-0.12535632
218	0xbd421a83	-0.047388565
219	0xbeb6b944	-0.3568822
220	0xbd8944f2	-0.067026034
221	0x3e0c5c0e	0.13706991
222	0x3d0231f6	0.031785928
223	0x3df26268	0.11835176
224	0x3cc2871f	0.023746071
225	0xbe39215f	-0.18079136
226	0x3d2ebdad	0.042661358
227	0xbeabf7f4	-0.3358761
228	0x3c42e01f	0.011894255
229	0xbd5dc1d1	-0.054139916
230	0x3e279010	0.16363549
231	0x3d992128	0.07477027
232	0xbdfc8efc	-0.123319596
233	0x3db2588a	0.08708294
234	0x3e05fcc4	0.13084704
235	0xbdc4f418	-0.0961687
236	0x3c7c7324	0.015408311
237	0xbeb82f34	-0.35973513
238	0x3d268f22	0.040663846
239	0x3e29d7de	0.16586253
240	0x3ce7c400	0.028291702
241	0xbe413af3	-0.18870144
242	0xbe6a05a6	-0.22853717
243	0x3da44233	0.08020439
244	0x3de641db	0.1124303
245	0xbe44ff4f	-0.19238017
246	0x3e1bd0af	0.15216325
247	0xbe468bac	-0.19389218
248	0xbc9e6d1a	-0.019339133
249	0x3d90848a	0.0705653
250	0xbdbc89a7	-0.092059426
251	0x3d4d018c	0.050050303
252	0x3eec17dd	0.46111956
253	0xbe999fd0	-0.3000474
254	0xbec6c9c2	-0.38825804
255	0xbe9b9ea7	-0.3039448

seq.l0.bias f4 [32]
0	0xbe2aec75	-0.16691764
1	0xbe462fa1	-0.19354106
2	0x3d59d7ae	0.053184204
3	0x3eb8c35b	0.36086544
4	0x3e5fcb2f	0.21854852
5	0xbdf9fc0b	-0.122062765
6	0xbd04281f	-0.032264825
7	0x3ddde293	0.10834231
8	0x3defd2e8	0.11710149
9	0x3e4db18c	0.2008726
10	0xbcdc41ea	-0.026886899
11	0x3d8b62d6	0.06805961
12	0x3d9ba491	0.07599748
13	0xbc8ef528	-0.017450884
14	0x3df0a309	0.117498465
15	0xbd35c98f	-0.044381674
16	0xbcdd791d	-0.02703529
17	0x3e3a29c1	0.1817999
18	0x3e1d304c	0.15350455
19	0xbd262a5c	-0.04056774
20	0xbe6c5834	-0.23080522
21	0xbb87a7f7	-0.004139896
22	0xbd966b7f	-0.07344722
23	0x3e02c3d0	0.12770009
24	0xbc48e00c	-0.012260448
25	0xbe05e50e	-0.13075659
26	0x3c5c0c8a	0.013430724
27	0xbd8fc089	-0.07019145
28	0x3eb8b927	0.3607876
29	0xbc0837ec	-0.008314114
30	0xbd83f5c7	-0.06443363
31	0xbdf3d0f5	-0.1190509

seq.l1.weight f4 [24, 32]
0	0x3e25be07	0.16185771
1	0x3ddfc4e0	0.10926223
2	0x3abbcbaa	0.0014327664
3	0x3e4078f9	0.18796147
4	0xbe652b70	-0.22379851
5	0xbd0f2439	-0.034946654
6	0xbd0a8969	-0.03382245
7	0x3e0f40d5	0.13989575
8	0xbcd1d746	-0.025615346
9	0x3dbaf0de	0.09127973
10	0xbc932f1b	-0.017966798
11	0x3e38e924	0.18057686
12	0x3e0e64b5	0.13905604
13	0xbf4221a4	-0.7583258
14	0x3f246ea4	0.64231324
15	0x3e8308ce	0.25592655
16	0xbd915202	-0.0709572
17	0xbdc3afbf	-0.09555005
18	0x3ddea228	0.108707726
19	0xbd79571b	-0.060874086
20	0xbc0bf475	-0.00854217
21	0x3daf8ca4	0.08571747
22	0x3e4b6fbd	0.19866844
23	0x3cf6324f	0.030053286
24	0xbe2808c8	-0.164096
25	0x3e61674e	0.22012064
26	0x3df346b0	0.11878717
27	0x3f145665	0.5794433
28	0x3d029ff0	0.03189081
29	0xbf67bed6	-0.9052557
30	0xbeaac793	-0.33355388
31	0xbdd79c14	-0.105278164
32	0x3e01f3a5	0.126906
33	0x3d244270	0.040102422
34	0x3d1ba546	0.037999414
35	0x3ebd0f5b	0.36925778
36	0x3dbd3f76	0.0924062
37	0xbe0d79df	-0.13816021
38	0x3dd3ec98	0.10347861
39	0x3e17eb3c	0.14835829
40	0x3e3aff21	0.18261386
41	0xbcab7d78	-0.020933852
42	0x3e10b72a	0.14132372
43	0x3e82a248	0.25514436
44	0xbdd9c1aa	-0.106326416
45	0x3e300b87	0.17191897
46	0x3f023fa6	0.5087837
47	0xbdfba2a8	-0.122868836
48	0x3e2b6f81	0.16741754
49	0x3da65fcb	0.0812374
50	0x3e33c584	0.17555815
51	0x3e9f3dff	0.31101987
52	0x3de4e771	0.111769564
53	0x3de41869	0.11137468
54	0x3df08f73	0.11746111
55	0x3e972b96	0.2952544
56	0xbe4334a0	-0.19063044
57	0xbdddda16	-0.10832612
58	0x3d0d42b3	0.034487437
59	0x3da74c84	0.08168891
60	0x3ea712fa	0.32631665
61	0x3e307c21	0.17234851
62	0x3cf08673	0.029360985
63	0x3da8f351	0.08249534
64	0xbea120a4	-0.31470215
65	0xbc5791a5	-0.013157283
66	0xbe8b4f56	-0.27208966
67	0x3e12d9c1	0.14340879
68	0x3de9b6d0	0.11411822
69	0xbd9d4cd3	-0.07680669
70	0xbd51bfb4	-0.051208213
71	0x3e56e740	0.20986652
72	0xbd2adc76	-0.041714154
73	0x3d59c140	0.053162813
74	0x3e781150	0.24225354
75	0x3e6922a8	0.22767127
76	0xbeecab8c	-0.4622463
77	0xbe68dd8d	-0.22740765
78	0xbe2c91d2	-0.16852501
79	0x3d3238d5	0.04351123
80	0xbd8044d8	-0.06263131
81	0xbd93b545	-0.07212309
82	0x3dfd9f5f	0.12383913
83	0x3d644035	0.055725295
84	0xbe211698	-0.15731275
85	0xbe98bd43	-0.29831895
86	0x3d92c77c	0.07166955
87	0x3e3b5fcd	0.18298264
88	0xbe6c4591	-0.23073412
89	0x3dfefdd6	0.12450759
90	0xbeb59532	-0.3546539
91	0xbe646e1f	-0.22307633
92	0xbe413053	-0.1886609
93	0x3da5c575	0.080943026
94	0xbe2397e8	-0.15975916
95	0xbe6d171c	-0.23153347
96	0x3e0fd36e	0.14045498
97	0xbed544eb	-0.41654143
98	0xbdddc6c7	-0.108289294
99	0x3ddc2e48	0.10751015
100	0xbd408b99	-0.04700813
101	0xbe7f7155	-0.24945576
102	0x3d38c51f	0.045109864
103	0xbe15f708	-0.14645016
104	0xbcafd3e2	-0.021463338
105	0x3d032707	0.03201964
106	0xbe0a6b7e	-0.13517568
107	0x3d7455af	0.059652027
108	0xbe0b9641	-0.13631536
109	0x3e90202f	0.28149554
110	0xbde67651	-0.11253036
111	0xbe0602dc	-0.13087028
112	0x3d2c003b	0.041992407
113	0xbd2b716f	-0.041856226
114	0xbe8ae551	-0.2712808
115	0xbe7c171e	-0.24618194
116	0xbdc619c4	-0.09672883
117	0x3e046020	0.12927294
118	0x3d69f808	0.057121307
119	0xbe44f99f	-0.19235848
120	0x3e6b5e69	0.22985233
121	0xbe990cb7	-0.29892513
122	0xbc82aa69	-0.015950399
123	0x3df55cd1	0.11980594
124	0x3c884519	0.01663451
125	0x3df767b1	0.120803244
126	0x3e07a181	0.13245203
127	0x3da5b10d	0.080904104
128	0xbdc42d42	-0.09578945
129	0xbd933c20	-0.07189202
130	0x3f0d67c7	0.55236477
131	0xbd3ee8da	-0.046608783
132	0xbd6f3633	-0.058401298
133	0x3dce4913	0.100725316
134	0xbdca166c	-0.09867558
135	0x3e804246	0.25050563
136	0x3e1133f8	0.14179981
137	0x3d9802a4	0.07422379
138	0x3d17b56e	0.03703826
139	0x3de068f8	0.10957521
140	0xbe9ef03a	-0.31042653
141	0xbe8663fe	-0.26248163
142	0x3ec94007	0.3930666
143	0xbddefb8f	-0.10887825
144	0xbe9d1d2b	-0.30686316
145	0x3e0c2d2c	0.13689107
146	0x3c9e4a25	0.019322464
147	0xbdc2e47f	-0.095162384
148	0x3d44ebc5	0.04807641
149	0x3e8b4cba	0.27206975
150	0x3e05ad24	0.13054329
151	0xbe3162a0	-0.17322779
152	0x3c37e8e8	0.011224963
153	0x3df6492a	0.12025674
154	0xbcb0b29e	-0.021569546
155	0xbe78c82d	-0.24295111
156	0xbe2d6ad1	-0.16935278
157	0xbd581b2e	-0.052760296
158	0x3dfa0584	0.12208083
159	0xbd8abc4b	-0.06774195
160	0x3e0a6945	0.1351672
161	0x3dec2d16	0.11532037
162	0xbe1a46ef	-0.15066122
163	0x3e7347cb	0.23757856
164	0x3e3893fe	0.18025205
165	0xbdaddff8	-0.08489984
166	0x3ddd7a3e	0.108143315
167	0xbb880117	-0.0041505205
168	0x3e55ed26	0.20891246
169	0x3e665d82	0.22496608
170	0x3d712d6c	0.05888121
171	0x3d055649	0.03255299
172	0xbe237045	-0.15960796
173	0x3e69a23c	0.22815794
174	0x3d174442	0.03693033
175	0x3e016d46	0.12639341
176	0x3de473ed	0.111549236
177	0x3e3fbb93	0.18723898
178	0x3e3df207	0.18549357
179	0xbd8f07fd	-0.069839455
180	0x3d239b56	0.03994306
181	0x3a97d93d	0.0011585128
182	0x3e6f0015	0.23339875
183	0x3de42e9f	0.11141705
184	0xbb8b32f5	-0.004248018
185	0xbde4878c	-0.11158666
186	0xbdb9984d	-0.09062252
187	0x3ed96672	0.42460972
188	0x3e5c97a4	0.21542221
189	0x3da36d16	0.07979791
190	0x3e06c9c0	0.13162899
191	0xbd65fa56	-0.056146942
192	0x3cad3395	0.02114276
193	0xbde2f045	-0.11080984
194	0x3c600a0b	0.013674269
195	0xbd8a28da	-0.06746073
196	0x3dbce84a	0.09223993
197	0x3dfb4afb	0.12270161
198	0x3e11bae1	0.14231445
199	0xbcab6f70	-0.020927161
200	0x3d95649e	0.07294582
201	0xbe5eca8e	-0.21756956
202	0xbe08a5ed	-0.13344546
203	0xba1d5c7d	-0.00060028565
204	0xbcbe488e	-0.023227956
205	0xbe267d42	-0.1625872
206	0xbdabe334	-0.08392945
207	0xbdfbc27b	-0.122929536
208	0xbe5d415c	-0.21606964
209	0xbc5b3a87	-0.013380653
210	0x3dca34c1	0.09873343
211	0x3d19aadb	0.037516456
212	0xbdc750bd	-0.097321965
213	0xbe4a430b	-0.19752137
214	0xbe328d4a	-0.1743671
215	0xbc60542c	-0.013691943
216	0x3dbe5fa8	0.09295589
217	0xbd8d8231	-0.06909598
218	0xbddbacfd	-0.10726354
219	0xbdd1f43f	-0.10251664
220	0xbd4072cd	-0.046984483
221	0xbe5a39ff	-0.21311186
222	0xbe22ee69	-0.15911259
223	0x3e0bf869	0.1366898
224	0xbcc60868	-0.02417393
225	0x3d0a60e8	0.033783823
226	0xbdeee568	-0.116648495
227	0x3ea95dbf	0.33079335
228	0x3ccf2301	0.025285246
229	0x3da59343	0.080847286
230	0xbe1cc168	-0.15308154
231	0x3c015da9	0.0078958655
232	0x3de4e3b0	0.111762404
233	0xbd1e810c	-0.038697287
234	0x3e5fcca6	0.21855411
235	0x3e8fb873	0.2807041
236	0x3dd05e6a	0.10174258
237	0x3e064a04	0.13114172
238	0x3e86ca08	0.26326013
239	0xbd8e6ae9	-0.06953985
240	0xbbfbf704	-0.0076893587
241	0x3cb30514	0.021853007
242	0x3e33cb8b	0.17558114
243	0x3dfbec94	0.12300983
244	0xbd35727e	-0.04429864
245	0x3e107e96	0.14110789
246	0x3e25be02	0.16185763
247	0x3de60f49	0.11233384
248	0x3d817817	0.063217334
249	0xbe285e06	-0.16442117
250	0x3e960552	0.29300934
251	0x3ecb469c	0.39702308
252	0x3ecddbc6	0.40206736
253	0x3e0189a6	0.12650165
254	0x3ce62c28	0.028097227
255	0x3d71eeb9	0.059065554

seq.l1.bias f4 [24]
0	0x3ec31f8f	0.38110015
1	0x3e97b544	0.29630482
2	0xbd2034a2	-0.039112695
3	0x3b14396e	0.0022617239
4	0x3ce01197	0.027352137
5	0x3efd5637	0.4947984
6	0xbe54966b	-0.20760505
7	0x3eaec9eb	0.34138426
8	0x3d508021	0.050903443
9	0x3d8e3ce3	0.06945207
10	0xbe02b3f1	-0.12763955
11	0xbc0c2c70	-0.008555517
12	0xbb0dbf30	-0.002162885
13	0xbda8a534	-0.08234635
14	0x3dbf2bdd	0.09334538
15	0x3e11af36	0.14226994
16	0x3e7099b1	0.23496129
17	0x3e1e00db	0.15430014
18	0x3dac5dd4	0.08416334
19	0x3eee61df	0.46559045
20	0x3d103079	0.035202477
21	0x3d147eab	0.036253612
22	0x3eaeb25d	0.34120455
23	0x3e918fd8	0.28430057

seq.ll.weight f4 [4, 24]
0	0x3ebb768b	0.3661388
1	0x3e9dca61	0.30818465
2	0xbde4edda	-0.11178179
3	0x3e11c840	0.14236546
4	0xbe09daa6	-0.13462314
5	0x3e442d64	0.1915794
6	0x3e0b1653	0.13582735
7	0x3e141131	0.14459683
8	0x3e84fe0f	0.2597508
9	0x3e87d7f5	0.2653195
10	0x3d9e707c	0.077362984
11	0xbe24adea	-0.16081968
12	0x3c1e47c2	0.009660663
13	0xbe998e7e	-0.29991525
14	0x3e0a862a	0.13527742
15	0x3ebcc7f4	0.36871302
16	0x3e121465	0.14265592
17	0x3e96a39b	0.29421696
18	0x3e9ba316	0.30397862
19	0x3e6b9c53	0.23008852
20	0xbe30fd42	-0.1728411
21	0x3e7a01b5	0.24414714
22	0x3e825259	0.2545345
23	0x3e5ecf1b	0.21758692
24	0x3e8ac23f	0.27101323
25	0x3e40dceb	0.18834274
26	0xbda5302f	-0.08065831
27	0xbd12383e	-0.035698168
28	0x3d5c1014	0.05372627
29	0x3df42202	0.11920549
30	0x3e0b30e2	0.13592866
31	0x3e4ffc85	0.20311172
32	0x3e9a90fc	0.3018874
33	0x3e123fd9	0.14282168
34	0x3e83fe0a	0.25779754
35	0xbd8ccbc4	-0.06874803
36	0x3e277c48	0.16356003
37	0xbdb0f83b	-0.08641096
38	0x3e238097	0.15967022
39	0x3e5f9087	0.21832477
40	0xbc398554	-0.011323292
41	0x3ea54e31	0.32286218
42	0x3e981b0a	0.2970813
43	0x3ea05efc	0.31322467
44	0xbe87c7cb	-0.26519617
45	0x3e917bc8	0.2841475
46	0x3eb39d95	0.35081163
47	0x3e827b97	0.25484917
48	0x3ec1ee9f	0.37877366
49	0x3eb0271e	0.34404844
50	0xbe9ffb2e	-0.31246322
51	0x3e5db6df	0.21651791
52	0x3e073d83	0.13207059
53	0x3e409b5b	0.18809263
54	0xbbaa77cc	-0.005202269
55	0x3e4b7354	0.19868213
56	0x3e943342	0.28945357
57	0x3ea4f32f	0.32216784
58	0xbf27ac7f	-0.65497583
59	0xbec8077a	-0.39068204
60	0xbe167c4f	-0.14695857
61	0xbe282865	-0.1642166
62	0x3e301d80	0.17198753
63	0x3e800f21	0.25011542
64	0xbdd2fbab	-0.10301908
65	0x3d242118	0.040070623
66	0xbc29fab2	-0.010374712
67	0x3e13caec	0.14432877
68	0xbdde80b3	-0.10864391
69	0x3d892ff3	0.06698599
70	0x3e921ccb	0.28537592
71	0x3e8fb040	0.28064156
72	0x3e56d843	0.20980935
73	0x3dbd9a50	0.092579484
74	0xbe8251cb	-0.25453028
75	0x3d8b94aa	0.06815465
76	0x3d6ec28e	0.05829101
77	0x3e6f00bb	0.23340122
78	0xbdb88849	-0.09010369
79	0x3e95eec7	0.29283735
80	0x3d40e17d	0.047090042
81	0x3e25674b	0.16152684
82	0x3e76356d	0.24043818
83	0xbd9dd0d7	-0.07705849
84	0x3ee4b7fe	0.44671625
85	0xbd837e2a	-0.06420548
86	0x3e6ddf05	0.23229606
87	0xbe3146ed	-0.17312212
88	0x3e7bfe23	0.24608664
89	0x3ec34684	0.38139737
90	0xbe1e0aac	-0.15433758
91	0x3edbf00c	0.4295658
92	0xbf0b16f7	-0.54331917
93	0x3e3af56c	0.18257684
94	0x3e693cd0	0.22777104
95	0x3e6129a9	0.21988548

seq.ll.bias f4 [4]
0	0x3ec2b710	0.3803029
1	0x3ef3f1eb	0.47645506
2	0x3e91a745	0.2844793
3	0x3e6a6f0d	0.22893925
