collaboration-competition-ppo/tennis_final.pth (torch_old, 24052 bytes, 12 tensors)

std f4 [4]
000000 03 23 73 bf ec 43 37 bf 7f 85 99 bf a3 de 55 bf
       -0.949753 -0.71588016 -1.1993865 -0.8354284

network.actor_body.layers.0.weight f4 [32, 48]
000000 3e a3 26 be a7 6c 07 3e 7d a2 b5 3d 2e 74 87 3d
       -0.1627321 0.13225041 0.08868883 0.066139564
000010 ae 4d 97 be 46 16 1b be c0 13 62 be dd 55 46 be
       -0.29551452 -0.15145215 -0.22077847 -0.19368692
000020 1c 58 14 3e cc e9 ad 3d 60 c3 02 be 3d 09 73 be
       0.14486736 0.08491859 -0.12769842 -0.23733993
000030 a5 fc 5a 3e 38 78 7f be 98 36 5c 3d f2 17 7a be
       0.21385439 -0.24948204 0.053763002 -0.24423197
000040 29 fd 2a 3e 20 1e 2e 3e ac c8 9b be 98 6d 34 be
       0.16698135 0.1700368 -0.30426538 -0.17619932
000050 41 eb 20 3e d7 c1 85 be d7 75 57 be 03 50 91 bc
       0.15714742 -0.2612445 -0.21041046 -0.017738348
000060 62 84 fb bd a8 7d a0 3e 4a d1 ec bd c9 09 b1 be
       -0.122811094 0.31345868 -0.11563356 -0.34577778
000070 57 b5 9e be b7 4a 8a be 2d 7c 2b be 77 ea 54 3d
       -0.30997726 -0.27010128 -0.16746588 0.051981416
000080 97 fa 28 3e 02 de cc 3e b0 64 82 3d 07 3b b5 be
       0.16501842 0.4001313 0.06366861 -0.35396597
000090 88 59 b3 bd ff 9a c8 bd a5 31 3c 3c 59 a1 f0 bd
       -0.08757311 -0.09795188 0.011486446 -0.117495246
0000a0 80 e5 5c 3e c1 90 68 3e 04 50 17 3d 75 94 d3 be
       0.21571922 0.22711469 0.036941543 -0.413242
0000b0 3e 4f b9 be 16 e5 b9 be 11 99 d1 3c f5 b1 ef be
       -0.3619327 -0.3630759 0.025585683 -0.46815458
0000c0 4f c6 4f 3d 03 94 5e 3e 88 9e 2c be c8 47 85 bd
       0.05072623 0.2173615 -0.1685735 -0.06507832
0000d0 bd ba 90 3d ed b9 e1 bd ee fb 72 3e 4b c3 76 bd
       0.070668675 -0.11021791 0.23728916 -0.06024484
0000e0 6c 0a e3 3e c0 d6 0e bd 37 da 80 3e cf 97 36 be
       0.4434389 -0.03487277 0.25166485 -0.17831348
0000f0 e8 0e 12 3e cf 9f 26 3e ef d4 28 3e 47 f5 10 3d
       0.14263499 0.162719 0.16487478 0.035390165
000100 aa d7 f2 3d 08 b7 8c bc 0f 51 57 bd 9b 2f ec be
       0.11857541 -0.01717712 -0.052567538 -0.4613007
000110 1d 7c c7 3d 60 87 37 3f 53 93 a0 be ec e7 19 bf
       0.097404696 0.7169094 -0.313624 -0.6011951
000120 99 e3 c3 bd 55 57 e2 be 3c be 6e bc 54 57 b9 bd
       -0.09564895 -0.44207254 -0.014571723 -0.0904986
000130 8c 26 04 be d6 54 70 3d b8 66 85 be 95 4a 86 be
       -0.1290533 0.058674656 -0.2605493 -0.26228777
000140 40 88 30 3e fd 68 b3 be 9c ef 22 3e e2 cc 1e 3e
       0.17239475 -0.35041037 0.15911716 0.15507844
000150 1b 7e 6b bd fd 0c 97 3d 66 10 46 3e 75 9a 5f 3d
       -0.05749331 0.07375524 0.19342193 0.05459066
000160 06 4c 89 bd dc 46 d6 be d2 f4 80 3d 56 f5 ed bd
       -0.067039534 -0.41850936 0.06296696 -0.1161906
000170 f4 46 58 be 46 a8 04 3f 5e e9 2e 3b b4 3b b0 3d
       -0.21120816 0.51819265 0.002668939 0.086051375
000180 84 37 29 3e 4f b4 85 be f5 b4 1e bd 7c 02 ae 3e
       0.16525084 -0.26114127 -0.038746793 0.3398627
000190 86 b5 da bc e4 f3 39 3d 37 5c a1 bd 78 86 96 3e
       -0.026697885 0.045398608 -0.07878917 0.29399467
0001a0 1d 0a c8 3d 3d 8f dd be 7f 82 1a 3e e5 1a a0 be
       0.09767554 -0.43273345 0.15088843 -0.3127052
0001b0 14 45 94 b7 a6 66 d5 3e bf 26 48 bd 85 81 c6 bc
       -1.7675142e-05 0.41679877 -0.048865076 -0.024231682
0001c0 63 36 73 bd 15 41 c4 be 17 84 6f be 49 c2 15 be
       -0.05937804 -0.38330904 -0.23390232 -0.14624895
0001d0 e6 ae 05 be 73 aa c3 3e ca 30 cd 3e ed 9b 17 be
       -0.13055 0.3821598 0.40076286 -0.14805575
0001e0 c1 d0 66 3e 02 f3 cb bd 43 1e 96 be 2c 77 8d 3d
       0.22540571 -0.099584594 -0.29319963 0.06907496
0001f0 81 1c 81 be dd 44 05 3e df 09 22 bc ce 01 6f be
       -0.2521706 0.1301455 -0.009890049 -0.23340532
000200 4a 49 27 3e 29 4a d4 bd 99 fa 92 be 06 27 55 3e
       0.16336551 -0.103657074 -0.28706816 0.20815668
000210 42 5a 5c 3e 1e 21 ab 3e 60 27 0a be 94 45 39 3e
       0.21518806 0.33423704 -0.13491583 0.18092948
000220 50 0a f6 bd 5e e3 1d be cc 91 2d be 84 b3 46 be
       -0.12013686 -0.15418765 -0.16950148 -0.19404417
000230 9d 7f 1e 3e e9 90 c4 3e 66 6f 14 be 00 dc 3a 3e
       0.15478368 0.38391808 -0.1449562 0.18247986
000240 a7 01 1a 3d db c8 92 be 78 e8 bc 3e f3 16 6a bc
       0.037599232 -0.28668866 0.3689611 -0.014287698
000250 ad 1a 39 be 9d b0 c8 be fd d2 32 3d a4 65 80 be
       -0.18076582 -0.39197245 0.043658245 -0.25077546
000260 1c b2 72 3d 21 15 a2 be 97 65 26 be 1a 32 8d be
       0.05925189 -0.31656745 -0.16249691 -0.27577287
000270 8c c1 24 be ee 9a 8d be d7 76 f6 bd f5 e9 07 bf
       -0.16089457 -0.27657264 -0.12034386 -0.53091365
000280 3d a9 a5 3e a6 c8 4e be da a0 be bd 5f 7a d2 bd
       0.3235568 -0.20193729 -0.09308024 -0.10277247
000290 ec eb 6a 3e 91 d9 ac be 47 fe 61 be eb 85 22 be
       0.2294156 -0.3375974 -0.22069655 -0.15871398
0002a0 9a 4c 01 3d f7 c4 6f bd c7 e9 09 bd c5 98 56 3e
       0.031567194 -0.05853745 -0.033670213 0.20956714
0002b0 7d 02 75 3e df 9f ba be f3 59 aa bd 28 f8 96 3d
       0.2392673 -0.36450097 -0.08317938 0.07371551
0002c0 04 1b 9a 3d be 46 4d 3d 1c 9a 3d 3e 42 93 cc 3c
       0.07524684 0.050116293 0.1851582 0.024972562
0002d0 df dc 0b 3e f8 12 f5 be 66 ee 92 3d 94 02 98 3c
       0.13658474 -0.47866035 0.07174377 0.018555917
0002e0 a8 d6 bf bc 68 5d 1c 3e 74 4f d9 bb 96 3a 4b 3e
       -0.023417786 0.15270007 -0.006631786 0.19846568
0002f0 72 98 bd 3e 0c 5f 71 be 75 9e 4a 3e 12 cc e8 3e
       0.3703037 -0.23571414 0.19787009 0.45468193
000300 46 0b c1 bd 0d 2b 38 be 6e d8 cb bd be 45 e2 bc
       -0.09425978 -0.17985173 -0.0995339 -0.027621146
000310 bc 49 24 be 22 2e 9c 3e 49 ee 4c be 10 2e b1 3c
       -0.16043752 0.30503947 -0.20012774 0.02162841
000320 ef 02 57 3e 5b b7 87 be 55 80 f7 bd b0 4b 9b 3e
       0.20997213 -0.26507077 -0.12085024 0.30331182
000330 b0 e0 d6 bd 6e 81 8c be b3 19 30 be 50 87 57 3e
       -0.104920745 -0.27442497 -0.17197303 0.21047711
000340 28 4d 9b 3e a4 d4 23 3c 5f f4 21 be 95 40 ac 3e
       0.30332303 0.009999428 -0.15815876 0.33643022
000350 2b e8 31 be f8 2b 1f bd 31 02 3c bb b1 34 3a 3e
       -0.17373721 -0.03886029 -0.002868783 0.18184163
000360 0d 52 7d 3e 77 97 c9 3e 44 be 87 be d6 91 8a 3d
       0.24738331 0.3937337 -0.2651235 0.06766097
000370 a2 48 2c 3d 6a 68 22 3e 0f c6 4f be de 86 ed be
       0.042061456 0.15860143 -0.20290397 -0.46391958
000380 5f 17 82 be aa 98 27 3d a6 d3 63 3d b8 8b 8b 3d
       -0.25408456 0.040917076 0.055621766 0.068137586
000390 13 9f 4f 3d 6c 89 77 bb 38 5e 82 bd 89 ef 0c 3e
       0.050688814 -0.0037771119 -0.06365627 0.1376325
0003a0 09 6f 7d 3c 2d e6 bd 3d c5 3f cf 3d 9c 33 82 be
       0.015468367 0.09272418 0.10119585 -0.2543
0003b0 21 4f 77 3e e4 0b 9e bd 8a 10 f8 3d 0a 48 d8 be
       0.24151279 -0.07717112 0.121125296 -0.4224246
0003c0 c9 a4 84 bd ed 34 d6 3e 82 31 ae 3d 66 87 17 3f
       -0.06476743 0.41837254 0.085055366 0.59190977
0003d0 d1 16 84 be 4b 06 51 bd b1 ed 78 bd c2 c3 35 3e
       -0.25798658 -0.051031392 -0.060773555 0.17750457
0003e0 8e 3b 13 be 86 f9 03 3f a0 c2 db 3d c2 1d 94 3e
       -0.14378187 0.5155262 0.10730481 0.28928953
0003f0 d0 c7 6c bd 95 31 2e bd 9c e2 96 bd 36 5f ad 3e
       -0.057807744 -0.042527754 -0.07367441 0.33861703

network.actor_body.layers.0.bias f4 [32]
000000 46 88 14 bd d0 c9 aa bc 70 76 dd bd 9a eb f1 bd
       -0.036262773 -0.020848185 -0.10813606 -0.118125156
000010 3d 66 8a bd e6 56 6e bd 75 a8 c8 bd 1f 23 19 be
       -0.06757782 -0.05818834 -0.09797756 -0.14954804
000020 0d 2e 08 3e 07 a9 88 bd ef 1c a1 bd 8b 98 fa bb
       0.13298817 -0.066728644 -0.07866847 -0.007647579
000030 94 1e 34 bd 0c ca b4 3d f1 98 06 be 8d 3d 26 be
       -0.043974474 0.088276 -0.1314428 -0.16234417
000040 57 cb ae 3d f7 87 02 bd 75 e2 ee bc ba de 37 be
       0.08534878 -0.031867947 -0.029160718 -0.17956057
000050 64 73 d0 bd 16 bb d5 bc 42 cf 9b 3d f1 3c cd 3b
       -0.10178259 -0.026090186 0.07607891 0.0062633683
000060 28 95 96 bd 8f 92 c1 bd 9d 31 c4 bd 4e ff a4 bc
       -0.07352668 -0.09451782 -0.095797755 -0.02014127
000070 49 46 03 be 0a f4 5f bd b8 1e b0 3b 53 d6 35 bd
       -0.1281978 -0.054676093 0.0053747557 -0.04439385

network.actor_body.layers.1.weight f4 [32, 32]
000000 ff 1b e9 be c0 52 5e be bf 17 75 3e db 81 45 3e
       -0.45529172 -0.21711254 0.2393484 0.19287817
000010 3e ba f0 bd 9b 8c 9c 3e 2d 1d c6 3c e7 2f 8f be
       -0.11754273 0.30576023 0.024183834 -0.27966234
000020 a7 24 ab be 56 36 83 3d 3b 02 44 bd 9f 8f e1 be
       -0.334264 0.06406848 -0.04785369 -0.44054887
000030 44 af 37 be 0d 24 f7 bd 4f 42 66 3e 0c f0 b5 3d
       -0.17937952 -0.12067423 0.22486232 0.08883676
000040 15 3f 95 be 18 a2 fa bd 1c 02 6a be ff e3 96 3c
       -0.2914969 -0.12237948 -0.22852367 0.018419264
000050 45 cb 14 be b0 9c c0 3d 7e 93 73 be d6 85 90 be
       -0.14530666 0.09404886 -0.23786733 -0.2822711
000060 70 c8 dd 3d 13 66 81 be 78 1a a6 3e 16 59 48 be
       0.10829246 -0.2527319 0.3244207 -0.19565234
000070 05 12 de bd ca 19 a8 3e 25 d3 10 3d 1b 41 41 3e
       -0.10843281 0.32832175 0.035357613 0.18872492
000080 d5 47 75 3e 59 95 d2 bd 3e 59 ce bd dc e2 a3 3e
       0.23953183 -0.10282392 -0.10075615 0.32009017
000090 20 d1 c6 3d e0 0e 20 3d ef a4 22 be 43 10 c7 bc
       0.09707856 0.039076686 -0.1588323 -0.024299746
0000a0 04 db 0d 3f 7b d9 3e bb f3 fe b7 3e 30 f5 8f 3e
       0.55412316 -0.0029121328 0.35936698 0.2811675
0000b0 b8 17 4d bd f5 ad 07 be 91 7a cc 3d 9a 5c f7 bd
       -0.050071448 -0.13249953 0.09984315 -0.12078209
0000c0 4b 04 2c 3e 6e 77 29 be 5c 5f 5c be 14 bc d7 be
       0.16798513 -0.16549465 -0.21520752 -0.4213568
0000d0 40 b8 de bd 41 df 70 be bb ef 93 be a2 33 66 3e
       -0.10874987 -0.23522665 -0.28893837 0.22480634
0000e0 d7 34 e7 bd 29 62 6d bd 11 cc 24 3d 32 b3 8f 3d
       -0.11289375 -0.05795494 0.040233675 0.07016601
0000f0 7f c8 b6 be 75 96 0e bf 4c 82 1b bd 07 a6 0f bd
       -0.3569984 -0.5569833 -0.037966058 -0.035070445
000100 1f 1c 4b be 06 23 de be 26 9b 93 be 29 bf 5f be
       -0.19834946 -0.43386096 -0.28829306 -0.21850266
000110 4b f9 92 bd 08 fa 94 be 8e e9 07 be de dd c3 3e
       -0.07176455 -0.2909701 -0.13272688 0.3825521
000120 5d 13 32 be 8c cb de bd 41 2d 90 bd 02 b2 14 bf
       -0.17390199 -0.10878667 -0.070398815 -0.5808412
000130 a1 e4 92 bd 05 38 22 be 52 41 92 bd 63 d9 ae bd
       -0.07172514 -0.15841682 -0.07141365 -0.08537557
000140 c2 7c 13 bf 40 d6 c9 3d 4a 6c 0a be d0 3e 0d be
       -0.5761224 0.09855318 -0.13517871 -0.13793492
000150 06 14 7c be 2a ca 0e 3e 08 bd ae 3c 94 fe ed 3d
       -0.24617013 0.13944307 0.021330371 0.116208225
000160 43 ea d1 bb 94 48 6b be 94 73 c9 be 97 b5 53 3e
       -0.0064061 -0.22976905 -0.39345992 0.2067474
000170 dc de 6f 3d 5d 0e 04 be 47 0d c8 be cd 52 4a be
       0.058562145 -0.12896104 -0.3907263 -0.19758148
000180 22 84 af be 3d ea 70 bd 94 6c 06 bf b6 c8 58 3c
       -0.34280497 -0.058817137 -0.5250943 0.013231447
000190 f2 b6 ac be 5b c4 e6 be 16 fd 0b be 38 77 6f 3d
       -0.33733326 -0.45071682 -0.13670763 0.058463305
0001a0 dd 22 7d be 06 94 16 3e 2b 1e b7 bd 9a 9e 63 be
       -0.2472033 0.14704904 -0.08941301 -0.2222847
0001b0 44 f6 3d be 39 f5 f1 be 4c 54 04 be 50 f4 69 bd
       -0.18550974 -0.47257403 -0.12922782 -0.05711776
0001c0 40 41 96 bc f5 50 94 3e 8a 8d 91 be 45 43 4f 3c
       -0.01834166 0.28968015 -0.28428298 0.012650316
0001d0 bd 0d 96 3c 3d 07 f8 3d 20 30 76 be bb 2f 87 3d
       0.018317098 0.121107556 -0.24041796 0.06600901
0001e0 8b 11 03 bd 36 79 0b be 79 83 be be 16 f2 41 be
       -0.031999152 -0.13620457 -0.3720968 -0.18940005
0001f0 ec a3 aa 3d 15 9b 80 be c7 23 1f 3e f9 19 80 be
       0.08332047 -0.25118318 0.15540992 -0.25019816
000200 6b f6 a2 be 65 f6 e2 bd 96 8e e9 bd 63 1f fb 3d
       -0.31828627 -0.11082152 -0.11404149 0.12261846
000210 c9 a0 cb bc ee 15 50 3e 50 14 5d 3e 66 8f 97 bc
       -0.024856942 0.20320866 0.2158978 -0.018500995
000220 a1 67 a6 be 2e 90 5e 3e 05 2d 04 bf 87 5c 0c 3e
       -0.32500938 0.21734688 -0.51631194 0.13707171
000230 90 6a 3a bd 3d 8b 11 bf 95 a1 b5 bc e3 e4 8b 3d
       -0.045511782 -0.56853086 -0.022171775 0.06830766
000240 40 04 26 3d ed 58 e6 3c 12 12 08 3d 79 ae 47 3d
       0.040531397 0.028118575 0.03322036 0.048750374
000250 bc 07 2e 3e af 3c a5 3d 53 63 eb bd df 79 58 3d
       0.16995138 0.08068215 -0.11493554 0.0528506
000260 b4 a3 57 3e 4b b2 d5 3d 6b 5b 58 3e e3 49 1b 3e
       0.21058542 0.10434397 0.21128623 0.15164904
000270 0a b6 a9 3d 3d 15 3f 3e 42 db 91 be 67 b1 e6 be
       0.08286674 0.18660446 -0.28487593 -0.45057222
000280 54 b0 14 3e 53 10 4b 3e 88 1d fd 3d ad d4 5a 3d
       0.14520389 0.19830446 0.12359148 0.05342548
000290 b6 3a 4a be 49 06 ec be ba b4 06 3e 2c df 3d 3c
       -0.19748959 -0.46098545 0.13154879 0.011588853
0002a0 c0 1a a6 bd 37 cf 82 3e fd 48 23 bd f4 06 c9 be
       -0.08110571 0.25548717 -0.03986453 -0.39263117
0002b0 2b 44 98 3e 9f e0 43 bd 5e 0a 2b 3e 71 59 05 bf
       0.29739508 -0.047821637 0.16703174 -0.520896
0002c0 ca 65 5f be c0 d0 60 3d 5e 9a 76 3e 84 b7 98 bd
       -0.21816173 0.05488658 0.24082324 -0.07456878
0002d0 8d ec d3 bc 92 1e 21 bd 37 f1 e4 be 0f d1 88 3e
       -0.025869632 -0.039335795 -0.44715282 0.26722
0002e0 06 a0 d1 be 5e 8d 9e be e0 f1 c7 3c 9b f6 0e 3d
       -0.409424 -0.3096723 0.024407327 0.03490315
0002f0 db 26 da bd 7d 3c 20 bd ee 1d 48 bd f2 d7 e4 bd
       -0.10651942 -0.039120186 -0.04885667 -0.11174001
000300 5c cc 19 3e fe b3 17 3e 32 2c f8 3d 2c 50 a5 be
       0.15019363 0.14814755 0.121178046 -0.3228773
000310 3a 1a 8b 3d c7 40 9c be c5 7f 38 3e 89 86 0b 3e
       0.06792112 -0.3051817 0.1801749 0.1362554
000320 bc 5b 46 3d ff 42 e5 bd ee a5 ee be 81 46 7c 3e
       0.04842733 -0.11194419 -0.4661097 0.2463627
000330 11 73 bf 3d bd e6 ad 3c 65 3a 5f 3e 66 e9 96 bb
       0.09348119 0.021228189 0.2179962 -0.00460546
000340 93 29 65 be d3 d7 c1 b9 72 dc 85 3e d9 d6 7f be
       -0.2237914 -0.0003697263 0.2614475 -0.24984302
000350 7a 01 1b 3d c5 50 a6 be 6c 0f 3b 3e 8a 77 10 bf
       0.037843205 -0.32483497 0.18267602 -0.564324
000360 98 15 55 3e e9 67 e0 be 9e 55 96 be 2c 9d 07 3e
       0.20809019 -0.43829277 -0.29362196 0.1324355
000370 49 7f 0c 3e b6 d8 d2 3c 41 e9 2a 3e ce 7e 4f bd
       0.1372043 0.025738101 0.16690542 -0.05065804
000380 ca e4 64 be 06 35 2a bf 1c 64 73 bc fb f9 0c bf
       -0.22352901 -0.6648716 -0.014855411 -0.5506894
000390 cf 98 5a 3e b5 5a a1 3c 23 72 e5 3e 55 dc 25 be
       0.21347354 0.019696573 0.44813642 -0.16197331
0003a0 09 a1 19 3e 5e d2 57 bd 92 92 a5 bd 86 4a 3a 3e
       0.15002836 -0.052690856 -0.08084597 0.18192491
0003b0 5d 4f 0a be 16 69 8a 3c 6f 79 41 bf c0 98 4c bd
       -0.13506837 0.016895812 -0.7557592 -0.04995036
0003c0 b1 36 16 bd 79 e8 3d be 7c fc d4 be 46 8a 44 bf
       -0.03667325 -0.18545713 -0.4159888 -0.7677349
0003d0 78 9c 30 3e c2 69 bc 3d ab bf b9 bb f8 76 51 3e
       0.17247188 0.09199859 -0.0056686006 0.20455539
0003e0 7e bb 5a bd 4d 37 4a be 75 07 90 3d fa 9a 95 3d
       -0.053401463 -0.19747658 0.07032672 0.0730495
0003f0 df fd 21 3d 3e 51 28 be af 44 c5 3d dd 68 bd 3d
       0.03954875 -0.16437241 0.09632241 0.09248517

network.actor_body.layers.1.bias f4 [32]
000000 0f 8f 37 be 38 25 56 3c 47 d4 1c bd bc 26 7f be
       -0.17925666 0.013070397 -0.03828838 -0.2491712
000010 a2 ae 85 3c 4b 87 9b bd 3c 2f 14 bd c0 bc b9 3c
       0.016318623 -0.075941645 -0.03617786 0.02267301
000020 82 87 b3 bd 3e d0 f2 bc 3f f4 ed bd e4 6d a6 bd
       -0.087660804 -0.029640313 -0.11618852 -0.08126429
000030 66 44 05 3e 34 90 0e 3d cb af c7 bd 6d 14 8e bd
       0.13014373 0.03480549 -0.09750327 -0.0693749
000040 9b d8 54 be a6 0d 17 be fe ce 45 3d 2c 61 99 3c
       -0.20785753 -0.147513 0.048293106 0.018723093
000050 e1 91 90 bd 31 6e d2 bd 7c 04 5f bd 12 2b 84 be
       -0.07059074 -0.102749236 -0.054447636 -0.2581411
000060 ce 2f bb bd bb 6f 0a 3c 1c e3 19 bd ee e9 44 bd
       -0.091399774 0.00844949 -0.037570104 -0.048074655
000070 23 22 ae bd 29 c6 8e bd 4e 55 20 3e f1 bb c9 bd
       -0.08502605 -0.0697139 0.15657541 -0.098503

network.critic_body.layers.0.weight f4 [32, 48]
000000 61 bf 4b bd 4e ce 10 3f 21 c5 17 be dc d4 ca 3d
       -0.04974306 0.56564796 -0.14821292 0.09903881
000010 85 e4 45 bd 79 5c 0e 3f 57 ed 17 3d 7d 07 80 be
       -0.048313636 0.5560985 0.03709158 -0.25005713
000020 55 80 18 3b 58 2e 5f 3f b5 66 35 3b d0 37 d0 bd
       0.0023269851 0.8718009 0.0027679626 -0.101668954
000030 21 9f 41 3e 88 5b 8b 3e f0 c0 7b bd 2b 38 83 ba
       0.18908359 0.2721827 -0.061463296 -0.0010011246
000040 ef 49 aa 3d 82 13 85 3f 50 30 b3 3d 95 63 84 3e
       0.08314883 1.0396578 0.08749449 0.25857225
000050 8e 49 ea bc 15 60 2f 3e fa 4e e5 bc ca cf b7 bd
       -0.028599527 0.17126496 -0.02799176 -0.089751795
000060 b3 4d b2 3d 49 16 ad 3f e7 77 97 bd 6f 86 cb 3b
       0.08706226 1.3522426 -0.073959164 0.006211094
000070 23 20 0f 3e 85 dc 0d 3e f5 f9 1c 3d 40 d5 3c 3e
       0.13977103 0.13853653 0.038324315 0.18440723
000080 96 45 a4 3d ef 52 89 3f 65 d0 80 3c 50 c0 6d bd
       0.08021085 1.0728434 0.01572437 -0.05804473
000090 4f e9 a2 3d d7 2f 22 3e 25 fc e1 bc d2 5a 65 3d
       0.07954656 0.15838562 -0.027586052 0.055994816
0000a0 81 2e 3d 3e 17 ba 98 3f dc 31 25 3d ab d3 6d be
       0.18474771 1.193179 0.040330753 -0.23225276
0000b0 1d 32 4e bd 23 0f 86 3e 5c 9a bc bd d2 37 08 3e
       -0.05034076 0.26183423 -0.09209129 0.13302544
0000c0 87 5b 4b be d8 d7 04 be b9 02 4b bd 03 ec 6b bd
       -0.19859134 -0.12972963 -0.049563143 -0.057598125
0000d0 4b b5 3c 3e 4b c9 c1 bd fd 49 01 3d cf 80 10 bd
       0.18428533 -0.09462222 0.0315647 -0.03527909
0000e0 ac 21 95 be 3f f5 2d 3e b3 cb e5 bd f2 58 50 be
       -0.29127252 0.16988085 -0.11220493 -0.2034643
0000f0 77 bc 67 bd 7e 75 ed be 32 3c 9a 3d 96 5b 5e 3e
       -0.05657622 -0.46378702 0.075310126 0.21714625
000100 de 6a fd be aa 39 d3 3c fc 69 2a 3c 43 48 90 3e
       -0.49495596 0.025784332 0.010401245 0.2818013
000110 9c 34 87 3e 4e 15 84 bf 41 d6 c2 bd 7c 88 01 be
       0.26407325 -1.0319002 -0.09513522 -0.12649721
000120 1e 74 9f be 28 55 00 be 08 98 2f 3e a5 9e 13 be
       -0.31143278 -0.12532485 0.17147839 -0.14415987
000130 f7 bb 03 3e 2f 56 aa 3d c0 83 1c be d2 34 e3 3d
       0.12864672 0.083172195 -0.15284634 0.11094059
000140 8d d4 26 be cc 47 2f 3d a4 57 6c bd 07 1e 65 be
       -0.16292019 0.04279308 -0.057700768 -0.22374736
000150 e8 5d 41 be 0b dd 5b be 7d 1c 6a 3d 06 66 3f 3d
       -0.18883479 -0.2147104 0.057156075 0.046728157
000160 f8 67 06 3d 37 33 16 3e 4d b1 8d 3c 7b 52 8d bd
       0.032813996 0.14667974 0.017296458 -0.069004975
000170 73 91 22 3d 45 35 77 bf a1 9b 7f bc 93 fc 7c be
       0.039689492 -0.9656566 -0.01560107 -0.24705724
000180 71 52 0d 3d a9 fd 7a be 33 a8 9c 3d 6e 31 db bd
       0.03450245 -0.24510826 0.07649269 -0.10702787
000190 f1 2f 0d be 47 07 c4 3e 4d 73 22 bc b0 7d d6 3d
       -0.1378782 0.38286802 -0.009915185 0.10473192
0001a0 83 39 a2 3c b0 27 7c be 92 a1 60 bd d0 38 2a 3e
       0.019802814 -0.24624515 -0.054841585 0.16623235
0001b0 19 d9 15 3d 78 fd d3 bd 43 be f2 3c f9 c6 9d bd
       0.036583994 -0.1035108 0.02963174 -0.07703967
0001c0 c1 18 8e be 6f 4e ac be e3 21 e5 bd 8b 32 42 3d
       -0.2775326 -0.3365359 -0.11188104 0.047411483
0001d0 30 9f 9c bc 0c 42 1f bf c1 1a 36 3d 91 44 db 3e
       -0.019118875 -0.62210155 0.04445911 0.4282575
0001e0 6f 43 26 be a9 7a 66 be 6c 87 f1 3d 97 3c c5 bb
       -0.16236661 -0.22507729 0.11793408 -0.0060191858
0001f0 1c a1 a7 bd 27 10 f3 3e 5c cc 0f be c7 a6 26 be
       -0.08185026 0.4747326 -0.140428 -0.16274558
000200 03 66 94 be d4 40 79 be 4e 41 be bc d6 39 36 3e
       -0.2898408 -0.24341136 -0.0232245 0.177955
000210 c1 3e a4 3e 06 07 0b bd 87 cf ef bb 3e 6d ff bd
       0.32079127 -0.033942245 -0.0073184404 -0.12472008
000220 bc 88 f8 bd e3 d2 c4 be 90 3a 55 3d ef 0e f6 3d
       -0.12135455 -0.38442144 0.052057803 0.12014567
000230 60 15 16 3d 08 5b 1f bf 41 47 f1 bd ea 79 78 3d
       0.03664148 -0.6224828 -0.11781169 0.06066314
000240 23 f2 6b be 1a 87 da 3e 72 df 2c 3d 04 83 e8 3e
       -0.23041587 0.426812 0.04220528 0.45412457
000250 29 8a 12 bd ad 6c 07 bf 9e 55 a7 bc 14 ac d1 3e
       -0.03577629 -0.529002 -0.020426568 0.40951598
000260 39 6d 16 be c2 90 d5 3e 05 97 3b 3e 18 33 fa bc
       -0.14690103 0.41712004 0.18319328 -0.030541942
000270 a3 af 7f bd 1b 2c cc be 2f 88 d3 bd 0c 93 92 b9
       -0.06242336 -0.398774 -0.10328709 -0.00027956848
000280 c1 44 87 3d de 3d 2f 3f c7 7c 2c be 8e 80 d3 be
       0.06604911 0.68453777 -0.16844474 -0.41309017
000290 a0 a9 4b 3b 72 ef b5 be bf eb 17 3e 2a ce b8 be
       0.0031076446 -0.35534245 0.14836024 -0.3609479
0002a0 76 95 0c be b3 c6 98 3a 72 a2 34 3e d1 09 ea be
       -0.1372889 0.0011655897 0.17640093 -0.45710614
0002b0 ba 08 80 bd 40 30 ca be bc 3c 2d be d2 dd 27 be
       -0.062516645 -0.39489937 -0.169177 -0.16393211
0002c0 f4 dd af bd 4f b6 04 be 0e 82 c0 3d e3 6b ad be
       -0.08587256 -0.1296017 0.09399806 -0.33871374
0002d0 3f 47 d4 3d b3 71 71 be 06 43 1b be 5b aa ee 3d
       0.103651516 -0.23578529 -0.15162286 0.116535865
0002e0 24 29 da ba f8 45 48 be 80 90 21 3e 24 da 99 3d
       -0.0016644341 -0.19557941 0.15777779 0.0751231
0002f0 20 5a 30 be 27 2e c6 bb 8c d8 5d be 5b 82 21 3d
       -0.1722188 -0.0060479823 -0.21664637 0.039430957
000300 88 5a 6e 3c b1 09 4a 3e 08 bc 29 be 12 c4 a4 3d
       0.0145479515 0.1973026 -0.16575634 0.0804521
000310 9a 57 1f be bf a2 4b 3c 2e 20 3a bd 20 01 00 be
       -0.15560761 0.012428938 -0.045440845 -0.12500429
000320 96 aa a1 be cb 12 2e 3d 04 6f dc 3d 5b e8 c3 3a
       -0.3157546 0.04249839 0.10763362 0.0014946567
000330 a0 1e 6d be 4b cc 0f be e4 11 e1 bd b2 aa 08 3d
       -0.23156214 -0.14042775 -0.109897405 0.033365913
000340 87 2a 54 be 4f c5 f5 bb f0 71 46 be fc a8 07 3d
       -0.20719348 -0.0075003277 -0.19379401 0.03312014
000350 4f 6b a7 3d a0 b8 11 bf 34 4b 8a 3e 22 90 1c be
       0.08174764 -0.5692234 0.270105 -0.15289357
000360 e6 71 1b be 8d 47 a9 bd d3 44 8e be 30 c9 be bd
       -0.15180168 -0.082656 -0.27786884 -0.09315717
000370 ec 5f 0a 3e 22 80 53 be fb 23 4a 3e 60 8a ee bd
       0.13513154 -0.20654348 0.19740288 -0.11647487
000380 9f a0 f7 bc 9d d2 dc bd f7 bd 71 bd 68 33 0d 3e
       -0.030227957 -0.10782359 -0.059019055 0.13789141
000390 18 ba 40 3e 2b fe 43 be 67 ea b6 bb bf dc 86 be
       0.18820989 -0.19139926 -0.005582142 -0.2634029
0003a0 d2 0f 18 be d2 b1 36 be 35 73 ef 3c 3e 30 29 3e
       -0.14849785 -0.1784127 0.02922974 0.16522309
0003b0 09 04 5a be 7c 8d 1e bf a7 32 74 be 21 f4 fb bd
       -0.21290602 -0.6193464 -0.23847447 -0.12302423
0003c0 e4 50 6b 3c d1 c7 ed 3d e3 62 e0 bd 6a 7c 32 3d
       0.014362548 0.116103776 -0.10956361 0.04357568
0003d0 a6 1e 9a bc 3b 2f 71 3d bd d4 65 3e 2d 70 6e be
       -0.018813442 0.058882933 0.22444434 -0.23284979
0003e0 d4 4a b8 3e 29 e8 0a 3c c2 f7 89 be e0 f7 ba be
       0.3599459 0.008478203 -0.26946837 -0.3651724
0003f0 2e 8a 19 3d e8 ce 6d be 38 38 49 3e ac cc b5 be
       0.037485294 -0.2322346 0.19650352 -0.35507715

network.critic_body.layers.0.bias f4 [32]
000000 68 48 97 be d4 0b 7f 3e 6c ee 3e 3e 2e 82 87 bd
       -0.2954743 0.24906856 0.18645638 -0.06616627
000010 45 b4 60 3e 2e 02 bf bd 79 81 d8 bd 8a eb 58 3e
       0.21943767 -0.093265876 -0.1057157 0.21183601
000020 e2 8e 27 be f0 3e f6 bd 90 5c 38 3c 9b b1 37 be
       -0.16363099 -0.12023723 0.011252537 -0.17938845
000030 97 a0 42 be 6b d6 da bd 8e a9 2a bd 30 96 68 bd
       -0.19006573 -0.10685428 -0.041665606 -0.056783855
000040 c6 66 a1 bd 28 60 cf bc d7 c7 f2 bd 99 78 8b bc
       -0.078809306 -0.025314406 -0.11854523 -0.017025279
000050 08 b6 48 be d1 48 06 be 4a 01 06 be c0 a6 74 be
       -0.1960069 -0.13113715 -0.13086429 -0.23891735
000060 bf 10 6b bd 4a 16 4f be e3 c2 74 bd 4b 94 c3 bd
       -0.057389017 -0.20223346 -0.05975617 -0.09549769
000070 3a 86 80 bd f9 f9 1c be 5b 74 d6 bd 3e 28 01 be
       -0.06275602 -0.15329732 -0.10471412 -0.12613007

network.critic_body.layers.1.weight f4 [32, 32]
000000 27 bb f3 bd ab 70 56 be d3 4b f2 be 74 82 49 be
       -0.11900931 -0.20941417 -0.47323474 -0.1967867
000010 26 c1 02 be 2f 22 91 3d c7 1d 54 3c 17 73 9d bb
       -0.12768993 0.07086598 0.012946553 -0.0048049795
000020 31 e1 03 be 3c e7 81 be ff c3 a2 bd 95 7b 2a bd
       -0.12878872 -0.2537173 -0.079475395 -0.041621763
000030 9b ff fe bc d9 6e fb 3d 27 ad 3e be f7 23 6a 3e
       -0.031127742 0.12277002 -0.1862074 0.22865282
000040 7c b8 3f bd 7c b2 e8 be 1e e9 d3 bd 36 80 09 3e
       -0.046806797 -0.45448673 -0.10347198 0.13427815
000050 d1 59 6d be e1 db be be cd fa ce bc 98 be 88 be
       -0.23178793 -0.3727713 -0.025266076 -0.26707911
000060 62 8a 34 bd 27 ab 1a 3d 56 1e ac bd 19 4a 17 bd
       -0.044077285 0.03776088 -0.084042236 -0.0369359
000070 5b 68 75 be 04 5a e6 3d 2f 3b 38 be b3 96 e6 be
       -0.2396559 0.11247638 -0.17991327 -0.4503685
000080 53 4b 2e 3e 03 80 83 bd bd 3f 8b be 24 5d ab bc
       0.17020921 -0.06420901 -0.27197066 -0.020918436
000090 ce 16 3a be 32 fc 84 bd f4 d0 e4 be 66 9a 1e be
       -0.18172762 -0.06493415 -0.4469067 -0.15488586
0000a0 85 6f b2 bd d7 c0 6e be e4 99 d7 be 33 ca 90 be
       -0.08712677 -0.2331575 -0.42109597 -0.28279266
0000b0 e1 90 80 bd bc f1 a9 be 13 6a 1c 3d cf 42 9b bd
       -0.062776335 -0.3319224 0.038187098 -0.07581102
0000c0 38 9a 8a be 40 d1 71 bc 47 56 d0 3c af 19 1c be
       -0.27070785 -0.014759362 0.025431765 -0.15244173
0000d0 f5 de 0d be 10 23 1e be 92 f5 1d bb af 13 eb 3c
       -0.13854583 -0.15443063 -0.002410267 0.02869591
0000e0 27 2e 60 be 82 3d 37 3e 7c db 43 3e d1 f7 8f 3d
       -0.21892606 0.17894557 0.19126695 0.07029689
0000f0 32 ff 6e be 70 e8 52 be cd a9 0f bf bf 96 20 be
       -0.23339537 -0.2059648 -0.5611847 -0.15682505
000100 e5 24 e0 bd 1f 41 ce 3d 19 e4 69 be e9 81 76 be
       -0.10944537 0.100710146 -0.22840919 -0.24072994
000110 3f 4c 93 3d 03 72 70 be 84 7c 5f be e1 94 42 3e
       0.07192277 -0.23480992 -0.21824843 0.19002105
000120 e5 c2 92 bd ed 47 4f be 74 30 a4 be 6d de 6e bc
       -0.071660794 -0.20242281 -0.32068217 -0.014579398
000130 9b ae 06 be 6f 31 9a be 4c f7 99 3d ab 02 13 be
       -0.13152544 -0.3011584 0.07517871 -0.14356486
000140 c3 65 fd bd 72 83 c6 bd 99 4a 05 3e c8 64 34 bd
       -0.12372925 -0.0969304 0.13016738 -0.044041425
000150 64 e0 5c bc ec 0e bd be 30 93 cf be c4 46 81 3e
       -0.013481233 -0.36925447 -0.40541983 0.25249302
000160 e0 1f 2e be 69 6c ba 3c 2c 70 c2 be ee cd 97 be
       -0.17004347 0.022756772 -0.37976205 -0.296493
000170 f0 a9 89 be 85 9b a1 3d 5f e8 a6 be 08 1d 38 3c
       -0.26887465 0.07890991 -0.3259916 0.01123739
000180 ad ae 8c 3e 75 52 df be 1b c0 71 be a5 db 44 3e
       0.27477017 -0.43617597 -0.23608439 0.19224413
000190 4e 61 c0 bb af 60 aa 3d 0d 98 14 3d b5 19 13 be
       -0.0058709746 0.08319222 0.03627782 -0.14365275
0001a0 75 7a 98 3e 1e 19 0d be 40 59 e3 bd 0b b2 81 3e
       0.29780927 -0.13779113 -0.111010075 0.25331149
0001b0 12 c8 c3 3d 7a 8b f7 bd 2c a1 73 3e 4d 83 b4 be
       0.09559645 -0.1208715 0.23791951 -0.35256425
0001c0 a1 a5 9a be 35 ad fa 3d 6f cc 9e bd cf 28 da bd
       -0.3020449 0.12240068 -0.07753836 -0.10652315
0001d0 84 e7 d5 be 2e 6f 16 3e 9f 4b 51 3d 53 1b 3e 3d
       -0.41778195 0.14690849 0.05109751 0.046412777
0001e0 18 31 23 bd b3 94 10 3d e1 77 67 bd 12 f4 5d 3e
       -0.03984174 0.03529806 -0.05651081 0.21675137
0001f0 f0 bb 00 be 0a ea 36 be 5c 31 95 bc 01 82 33 bc
       -0.12571692 -0.17862716 -0.018212013 -0.010956288
000200 22 14 d3 bd a0 33 88 bd 8e e4 d6 be 23 a1 8d bd
       -0.103065744 -0.06650472 -0.41971248 -0.069155
000210 e2 2d a2 bd ba 90 a3 be cb 9d 02 be a1 a6 b4 be
       -0.07918908 -0.31946355 -0.12755506 -0.35283378
000220 2f c9 eb bd 73 43 28 3d f5 9a 3c be ea 01 8d be
       -0.11512982 0.04107995 -0.18418486 -0.27540523
000230 a3 8d 4e 3e 2b b8 5c 3e fd 19 ae be 87 09 ee 3c
       0.20171218 0.2155463 -0.34004202 0.029057277
000240 61 a2 cd 3d 60 e7 32 3e 45 2e 70 3d e1 f8 0b bc
       0.10040737 0.17471075 0.058637876 -0.008543224
000250 d7 fe 50 3c 6c b3 05 bd 2b d2 5b 3d b5 0e c6 bd
       0.012756071 -0.032641813 0.05366723 -0.09670774
000260 dd 9f 29 3e c9 0d 17 be 9a 22 21 be 24 c2 62 be
       0.16564889 -0.14751352 -0.15735856 -0.22144371
000270 cd 82 50 3d 09 1d 12 be 4e 95 04 bf b2 9e 43 bd
       0.05090599 -0.14268889 -0.5179032 -0.047758766
000280 dc 9b 21 be 75 16 ea 3d bd 50 f5 3d e1 c6 81 3d
       -0.15782112 0.114300646 0.1197829 0.06336761
000290 9d a3 9a bd 06 11 4d bd 59 ab 54 be 25 4b e7 be
       -0.07550738 -0.050065063 -0.20768489 -0.45174518
0002a0 74 92 43 3d c1 1e 2f bd 71 0f 93 be f7 0e 1a 3d
       0.04774709 -0.04275394 -0.28722718 0.037611928
0002b0 bf 36 93 be 43 ee 62 bb 7f f3 de bd a7 c2 28 be
       -0.28752705 -0.0034626878 -0.10886287 -0.16480504
0002c0 ea e7 a7 be 01 98 c6 3d c7 46 83 be f6 b7 26 3e
       -0.32794124 0.09696961 -0.25639936 0.16281113
0002d0 3a a6 d0 bc c5 b5 88 bd 66 52 2f be f1 45 f5 be
       -0.025469888 -0.06675295 -0.17121276 -0.47904924
0002e0 cd cc 4f 3b de 5d 42 bd 13 ea ea be 45 6a 9c be
       0.0031707764 -0.0474528 -0.4588171 -0.30549827
0002f0 ea de 26 3e a0 26 fa be 6a 0e 08 be 90 01 ed bd
       0.16295972 -0.48857594 -0.13286749 -0.11572564
000300 b3 c8 10 be da 3a 97 be 69 c0 8b be a4 68 83 3d
       -0.1413906 -0.29537088 -0.27295235 0.06416443
000310 e3 6c 71 be 01 02 a5 bd 3f 58 c8 be 4f 3d 59 3e
       -0.23576693 -0.08057023 -0.39129826 0.21214794
000320 a4 c8 d9 be 51 e2 32 3e e1 24 19 bd 1f e1 0c be
       -0.4253589 0.17469145 -0.037388686 -0.13757752
000330 99 a2 0f bf 39 69 89 bd 64 8c 5a 3e bc 64 71 3c
       -0.5610748 -0.06709523 0.21342617 0.01473349
000340 b0 1c cf be 04 93 ac bc 91 fb 3b bb e1 e2 3d bd
       -0.40451574 -0.021066196 -0.002868388 -0.046358947
000350 89 25 b9 3d 9f d5 ca bd a8 ee 06 3e c7 5b 6b bc
       0.090403624 -0.09904026 0.13176978 -0.014365143
000360 0d 35 6c bd c5 2e 8f bd aa b2 3e be 1b 7b 2b be
       -0.05766778 -0.069913425 -0.18622842 -0.1674618
000370 d5 90 ff 3d ea d5 86 3d d6 2a 6e be c9 93 bd be
       0.124787964 0.065837696 -0.23258528 -0.37026814
000380 5b 90 24 be 35 cd 13 be 89 2a 06 be d8 ab 66 3c
       -0.16070692 -0.14433749 -0.13102163 0.014079057
000390 98 c5 56 bc 65 83 6a be ff 43 2e be 5d af 28 be
       -0.013108633 -0.22901686 -0.17018126 -0.16473146
0003a0 a6 18 02 3d 36 bb d2 bd 9d 5e 5d be 4a 2e 47 bd
       0.031761788 -0.10289614 -0.21618123 -0.04862813
0003b0 51 83 a5 be 09 c0 c1 be 44 8d 01 3e d9 43 07 be
       -0.3232675 -0.37841824 0.12651545 -0.13209476
0003c0 76 b7 be 3e 35 a0 c5 be 98 42 1c 3d 4e 4d 30 be
       0.37249345 -0.3859879 0.038149446 -0.1721699
0003d0 ce 3b 05 3e cb ae f9 bd 83 b6 c4 3e 5a 08 8c 3e
       0.13011095 -0.12191542 0.38420495 0.27350122
0003e0 7b 54 1a 3d ac 42 40 be a9 5f ed bd 4c c5 a9 be
       0.037678223 -0.18775433 -0.11590511 -0.33158338
0003f0 c4 74 17 bd 7d fd 56 be a1 ae 9b bd f1 74 a9 be
       -0.03697659 -0.20995136 -0.07601667 -0.33097032

network.critic_body.layers.1.bias f4 [32]
000000 67 26 1e be 0d f6 36 be 07 cf 08 be a2 01 33 be
       -0.15444337 -0.17867298 -0.13360225 -0.17481092
000010 23 c5 8d bd 92 53 5f be f7 1b c7 bd b4 e6 47 be
       -0.069223665 -0.21809223 -0.09722131 -0.195216
000020 b2 30 89 be 86 5b 30 be 02 2b fb bd 6b 10 0e be
       -0.26794964 -0.17222413 -0.122640625 -0.1387345
000030 ce 3a 85 be e1 16 15 be f7 8d 61 3e db bb 1d be
       -0.26021427 -0.14559509 0.22026812 -0.15403692
000040 97 ba 9f bd c9 06 a0 b9 74 74 0d be d5 d7 69 bd
       -0.07799261 -0.00030522633 -0.13813955 -0.0570906
000050 ae 68 8c bd 88 80 3f bd 07 a7 1d be dd c0 f6 bd
       -0.068559036 -0.046753436 -0.15395747 -0.120485045
000060 d4 a1 1a be 4d cf bc bd ab 41 2d be 1f 8a 1f be
       -0.15100795 -0.09219227 -0.16919582 -0.15580033
000070 39 0e d2 bd 36 cf 7a bd c9 95 64 be 3c a8 bd bd
       -0.10256619 -0.061232768 -0.22322764 -0.09260604

network.fc_action.weight f4 [4, 32]
000000 00 ec 48 bd 03 0b 3f bd 9c 9d a5 3d de b2 7e bd
       -0.049053192 -0.04664136 0.08086702 -0.0621823
000010 1e f5 ea bd 04 65 76 bc 62 48 0c be 79 ab 75 3d
       -0.11472534 -0.015038732 -0.13699487 0.059977982
000020 de 64 cd bd d3 7a cb 3b 40 e7 93 3d c4 5b 6a 3d
       -0.100290045 0.00620971 0.07221842 0.05721642
000030 5b e0 13 3e 0f 15 9d bd a4 ff 9c be 6d 2b 8f bd
       0.14441054 -0.07670032 -0.30663788 -0.06990705
000040 e7 75 26 be f2 d0 7b 3d 55 7b 6c 3e 37 6f 8a bc
       -0.16255914 0.061478563 0.23093922 -0.016898734
000050 0b 2e 80 bd fa 33 88 bd 61 34 cd 3c 76 b4 4d 3d
       -0.06258782 -0.06650539 0.02504939 0.05022093
000060 e3 0d 56 be 81 bb 2d bd 38 c3 ae bd 12 0a 49 be
       -0.20903735 -0.042415146 -0.08533329 -0.19632748
000070 3f db 79 be df e3 56 bd c8 29 a0 3c b7 97 2b be
       -0.24400042 -0.05246341 0.019551173 -0.16757093
000080 29 5c 23 be c8 bb 3e bb 79 f1 53 be c7 d9 0b bd
       -0.15953125 -0.0029103626 -0.20697583 -0.034143236
000090 79 1f 21 bd 68 26 11 bc 77 13 0f bd 06 12 98 3d
       -0.039336655 -0.008859254 -0.034930672 0.07425313
0000a0 f5 da 0b bd e2 e4 9c 3e 10 45 dd bc 0a 7f 4e 3d
       -0.03414436 0.30643374 -0.02701047 0.050414123
0000b0 82 75 5c be 74 81 d8 bd 5f 04 b2 3b 43 f6 bf 3d
       -0.215292 -0.10571566 0.00543265 0.093731426
0000c0 bf 3b f8 3d 6a 8b 56 3d b9 fc 28 3d ac 14 c7 3d
       0.12120771 0.05237905 0.04125664 0.0972074
0000d0 e5 3f a3 3e b7 25 20 3e fc 25 03 bd c1 09 98 bc
       0.31884685 0.15639387 -0.032018647 -0.018559339
0000e0 70 b4 0a 3d 9d db ed 3d d3 13 bc bd fa 07 e6 3d
       0.033863485 0.116141535 -0.09183469 0.1123199
0000f0 fe 1f e1 bc 44 79 0f 3d 8f 97 8e 3e 9c fe a6 bd
       -0.027481075 0.035027757 0.27850005 -0.08154032
000100 cc d9 bf bc 4a 5d bb bd d4 0c e0 3c 20 0e cf bd
       -0.023419283 -0.09148653 0.027349867 -0.10110116
000110 21 29 ca 3a 59 85 9b bd 91 97 e7 bc 38 56 45 3d
       0.0015423634 -0.075937934 -0.028270515 0.048177928
000120 2d 64 94 3d af fd 1d bd cd df f1 bc 9d 59 01 3c
       0.072456695 -0.03857201 -0.029525662 0.007894901
000130 8e 1b c6 3d bf e0 2f be d3 83 d0 bd c0 08 41 be
       0.096732244 -0.17175578 -0.101813935 -0.18850994
000140 d3 ba 39 bd 6a b7 35 3d 87 d7 2f bd 00 ce 84 3e
       -0.045344185 0.04436437 -0.042930152 0.25938416
000150 73 78 31 3d cd de 1a 3e 38 e2 81 bd cb da 91 bd
       0.04332776 0.15124054 -0.06341976 -0.071218096
000160 53 36 21 3d ae 70 23 3e 44 60 62 3b 77 94 24 be
       0.03935845 0.15960953 0.0034542242 -0.1607226
000170 93 ff 57 bc 19 eb 59 3d 59 bb 7d 3d 1f 0b 1a be
       -0.013183492 0.053202722 0.061946247 -0.15043305
000180 2e ac 8b bd d8 74 5d 3e 46 da 0d be dc 5b 28 3d
       -0.0681995 0.21626604 -0.13852796 0.04110323
000190 78 f4 06 be 4a 61 46 3e 58 1e a5 3d 96 25 b2 3d
       -0.13179195 0.1937305 0.08062428 0.08698575
0001a0 10 b5 28 be f7 27 94 bd 95 da 5d 3d 27 40 36 3c
       -0.1647532 -0.07234185 0.054163534 0.011123694
0001b0 ad 43 34 bc 37 06 af 3d 9d 8b b4 3d 88 a9 7c 3d
       -0.011002463 0.08546107 0.088156916 0.061685115
0001c0 11 95 b8 bd b4 ba 53 be bf 80 6d 3e 20 e3 d8 3d
       -0.09012807 -0.2067669 0.23193644 0.10590196
0001d0 84 a9 43 be 93 f4 7b 3d 97 fa 57 bd 4a 44 5e 3d
       -0.19107634 0.06151254 -0.052729215 0.054264344
0001e0 77 a7 f1 3b bb cb 19 be 25 16 78 be a1 28 36 3c
       0.0073746997 -0.15019123 -0.24227197 0.011118085
0001f0 ae 27 3d 3e 08 f6 45 3b f1 18 57 be a2 e2 25 3d
       0.18472168 0.003020646 -0.21005608 0.040499337

network.fc_action.bias f4 [4]
000000 e4 76 1c be cc f0 02 3d f7 c8 9e 3d c3 d9 a0 bd
       -0.15279728 0.031967923 0.07753175 -0.07854035

network.fc_critic.weight f4 [1, 32]
000000 5c 8f 94 bc 82 dc ef 3c 07 36 2f bd 1f 4d 90 3c
       -0.018134765 0.029279951 -0.042776134 0.0176149
000010 0c e5 9e bc 31 cf b7 3c bc 1f 7f bc 29 8e 27 bd
       -0.019396327 0.022437664 -0.015571531 -0.04090706
000020 57 80 71 bd 9e 03 17 3d 28 98 f8 3b f7 84 b7 ba
       -0.058960285 0.036868684 0.007586498 -0.0014001419
000030 23 c2 5e 3c 5c e9 9b 3c b4 60 22 bd 59 43 f1 bc
       0.0135960905 0.019032173 -0.039643005 -0.02945106
000040 98 25 b6 bc 80 69 2e bd 3f e9 33 bd 83 ea a3 bb
       -0.022234723 -0.04258108 -0.043923613 -0.005002321
000050 b9 f2 2f bd c6 85 66 bd d5 b5 07 bb ae 0b ed 3a
       -0.042956088 -0.05627992 -0.0020707746 0.0018085146
000060 7e a6 11 bd cd 3f fa bc a8 27 88 3c 90 c6 82 bb
       -0.03555917 -0.030548 0.016620472 -0.0039909557
000070 3a 74 d1 3c a1 0f bf 3c 4d c0 8d 3d c0 c6 12 bd
       0.025568116 0.023322882 0.06921444 -0.035834074
