continuous-control/reacher_checkpoint_actor_final.pth (torch_old, 48521 bytes, 8 tensors)

fc1.weight f4 [128, 33]
0	0x3f45b2a0	0.77225685
1	0x3f47b5cf	0.7801179
2	0xbf68fa41	-0.9100686
3	0xbeab8769	-0.33501747
4	0x3e5bba92	0.2145789
5	0x3f120f99	0.5705505
6	0xbe8fecde	-0.28110403
7	0x3ecd712d	0.4012541
8	0xbd579f31	-0.05264205
9	0xbeaf72c8	-0.3426726
10	0x3e5546ad	0.20827742
11	0xbcfcdf8b	-0.030868312
12	0xbf02da59	-0.5111442
13	0xbde1df62	-0.11028935
14	0x3e5ab90d	0.21359654
15	0x3e973b76	0.29537553
16	0x3ec88072	0.39160496
17	0x3e2644c4	0.1623717
18	0x3d0f626b	0.035005968
19	0x3c19dbda	0.009390796
20	0xbceefa31	-0.029172035
21	0x3d62d29f	0.055376645
22	0xbd9d8ab6	-0.07692473
23	0x3d877d29	0.06615669
24	0x3edc7b93	0.4306303
25	0x3e881f6b	0.2658647
26	0x3d5430e9	0.051804457
27	0x3e9fedf3	0.31236228
28	0x3caadffd	0.020858759
29	0x3cfe6640	0.031054616
30	0xbeb13d1e	-0.3461694
31	0x3d9c4313	0.07629981
32	0xbfae193b	-1.360145
33	0x3f0ffa3c	0.562412
34	0x3dd61640	0.104534626
35	0x3e9d2a8f	0.30696532
36	0xbdbd62c4	-0.09247354
37	0x3eb72ac0	0.35774803
38	0xbe42bff6	-0.1901854
39	0x3dbe8ffe	0.09304808
40	0xbe0c730b	-0.1371576
41	0x3d6454b4	0.05574484
42	0x3e8688b0	0.2627616
43	0x3e755ccc	0.2396118
44	0xbbb6d93b	-0.005580095
45	0x3daef8f4	0.08543578
46	0xbe940ad5	-0.28914514
47	0x3f1e720d	0.6189278
48	0xbe89aae1	-0.26888183
49	0x3c04e749	0.008111783
50	0xbe365121	-0.17804386
51	0x3daecbfc	0.08535001
52	0xbd8ff9e6	-0.07030086
53	0x3b5318ff	0.0032210944
54	0x3e240577	0.1601771
55	0x3e85f8d8	0.26166415
56	0x3d7bfd24	0.06152071
57	0x3e969977	0.2941396
58	0xbea7e9f8	-0.32795691
59	0x3e563fea	0.20922819
60	0x3e0006a1	0.12502529
61	0x3e8312d0	0.2560029
62	0x3d932d81	0.071864136
63	0xbe0cad21	-0.13737918
64	0xbd9cdc76	-0.07659237
65	0xbfe9d0e8	-1.8266878
66	0xbdd72dfc	-0.10506818
67	0x3f20e18a	0.62844145
68	0x3e523067	0.20526277
69	0xbeda110a	-0.42591125
70	0x3e767738	0.24068916
71	0xbe487b37	-0.19578253
72	0x3e851e72	0.2599979
73	0xbdca6d93	-0.09884181
74	0xbe159927	-0.14609204
75	0x3ec7078d	0.38872948
76	0x3ec778d6	0.38959378
77	0xbd0da10d	-0.034577418
78	0x3e8295d9	0.2550495
79	0xbd19aa69	-0.03751603
80	0x3ee4b7b9	0.4467142
81	0x3f033df8	0.5126643
82	0x3bc4133b	0.0059837378
83	0x3f76fae4	0.9647658
84	0x3f62e1a2	0.8862554
85	0x3e844225	0.25831714
86	0xbeea02b6	-0.45705193
87	0xbe552ba1	-0.20817424
88	0xbe4f9713	-0.20272474
89	0xbdc55370	-0.09635055
90	0x3eb0d22d	0.3453535
91	0x3e9cbd5d	0.30613223
92	0x3e76cf5f	0.24102543
93	0x3f050459	0.5195976
94	0xbe934a98	-0.28767848
95	0x3d983f15	0.07433907
96	0xbef7dad3	-0.48409137
97	0xbd0fd05d	-0.03511082
98	0x3f0253fb	0.50909394
99	0xbe91a8f7	-0.28449222
100	0x3eee2c53	0.46518192
101	0xbecb281a	-0.39679033
102	0xbd57e5fa	-0.052709557
103	0xbf1041e6	-0.56350553
104	0xbe89d1a7	-0.26917765
105	0xbf1f331c	-0.6218736
106	0xbd3aac40	-0.045574427
107	0xbd5139bf	-0.05108046
108	0xbeb9b201	-0.3626862
109	0x3b9794a5	0.004625874
110	0x3e74b71f	0.2389798
111	0xbd7d94f9	-0.06190965
112	0xbe808dd8	-0.25108218
113	0x3f90fd1f	1.1327246
114	0xbdf6c249	-0.12048776
115	0x3ea6dad3	0.32588825
116	0x3d8f8a68	0.07008821
117	0xbe1fac72	-0.15593126
118	0x3dd8b503	0.105814
119	0xbd908ba8	-0.07057887
120	0xbee947cb	-0.45562586
121	0x3e817c95	0.2529036
122	0xbe984e71	-0.29747346
123	0x3e6d7e18	0.23192632
124	0x3e1a06f5	0.15041716
125	0xbe388707	-0.18020259
126	0x3e8a7ecb	0.2704986
127	0x3d0a554c	0.03377275
128	0xbcebd356	-0.028787296
129	0xbe33047e	-0.17482182
130	0x3d85b579	0.06528754
131	0x3f5965ac	0.84920764
132	0xbe19777b	-0.14986984
133	0x3e70a0ef	0.23498891
134	0x3a3bb866	0.00071609614
135	0xbc45f5e2	-0.012082549
136	0x3ead14f1	0.3380504
137	0x3e9b9d0b	0.30393252
138	0xbd8d732c	-0.06906733
139	0xbdc594e0	-0.09647536
140	0xbe786ba1	-0.24259807
141	0xbeda2be7	-0.4261162
142	0xbd96edc5	-0.0736957
143	0xbea8dc44	-0.3298055
144	0xbe1dad1e	-0.1539807
145	0x3e09d579	0.1346034
146	0x3f299a7a	0.6625134
147	0xbe4aea98	-0.19816053
148	0x3e2f5f02	0.17126086
149	0xbe976977	-0.2957265
150	0xbcf87429	-0.030328827
151	0x3d19ab6e	0.037517004
152	0xbeba2044	-0.36352742
153	0x3d922c9a	0.07137413
154	0xbe0c68bc	-0.13711828
155	0x3e972b7a	0.29525357
156	0x3e05b895	0.13058694
157	0xbe969547	-0.29410765
158	0xbd853615	-0.06504456
159	0x3d9f9ed5	0.07793967
160	0xbd783a99	-0.060602758
161	0x3ca521f4	0.020157792
162	0xbd16275d	-0.036658634
163	0x3d19b1ba	0.03752301
164	0x402f2553	2.736653
165	0xbedc86e5	-0.43071666
166	0x3ee260f1	0.44214585
167	0xbec74a36	-0.38923806
168	0xbe130661	-0.14357902
169	0xbd8f6c9f	-0.0700314
170	0xbe774156	-0.24146017
171	0xbe3eddf7	-0.1863936
172	0xbc70723d	-0.014675674
173	0xbecb9c2e	-0.39767593
174	0xbe72d232	-0.23712996
175	0x3d69ccfe	0.05708026
176	0xbddbc79e	-0.10731433
177	0x3db479c3	0.08812287
178	0x3f07b5df	0.5301189
179	0xbf59d4ac	-0.85090137
180	0x3f027ff3	0.50976485
181	0xbe83d6b6	-0.2574975
182	0xbe9609da	-0.2930439
183	0xbeb943b2	-0.3618446
184	0x3e1f4ab4	0.1555584
185	0xbd6e3012	-0.058151312
186	0xbe1865c5	-0.14882572
187	0x3e42a501	0.19008256
188	0x3cf38886	0.029728185
189	0xbe23809d	-0.15967031
190	0x3d3467ec	0.04404442
191	0xbe8a6482	-0.27029806
192	0x3e935805	0.2877809
193	0xbe34fc90	-0.1767447
194	0x3d808cd1	0.062768586
195	0xbee53f7d	-0.44775
196	0x3ce3bc70	0.027799815
197	0x3e8fde7b	0.28099427
198	0x3dbb74cc	0.091531366
199	0xbf15bfe3	-0.5849592
200	0xbd088b19	-0.03333578
201	0xbea9cc8d	-0.33163872
202	0xbe64dd00	-0.2234993
203	0x3e7c38ba	0.24631014
204	0xbe2b7826	-0.16745052
205	0xbe7a6b8d	-0.2445509
206	0xbeb73eaa	-0.35789996
207	0xbe2a7306	-0.1664544
208	0x3dc1f3a9	0.094703026
209	0xbda0f5c5	-0.07859377
210	0x3e13d398	0.14436185
211	0xbf10fa56	-0.5663198
212	0x3f0995fe	0.53744495
213	0x3f059839	0.521854
214	0x3e91306e	0.2835726
215	0x3ec29aed	0.38008824
216	0x3eb3aa1e	0.35090727
217	0xbd6c2641	-0.05765367
218	0x3e47562b	0.19466464
219	0x3e1979e7	0.14987908
220	0xbbbf9397	-0.0058464515
221	0xbe20723e	-0.1566858
222	0x3d66bc6a	0.05633203
223	0x3e8f3311	0.27968648
224	0x3ee584e9	0.44827965
225	0xbd3aa46a	-0.045566954
226	0x3c8da66f	0.017291276
227	0xbd2e5158	-0.042558044
228	0x3cbc1e8c	0.022963785
229	0x3ad78fc0	0.0016446039
230	0x3f347303	0.70487994
231	0x3eebe022	0.46069437
232	0x3e41a535	0.18910678
233	0x3ce5226c	0.027970515
234	0x3ced4065	0.02896137
235	0x3e4710f4	0.19440061
236	0xbe7a253a	-0.24428263
237	0xbd1cde72	-0.038298078
238	0xbd2fee45	-0.04295184
239	0x3e530928	0.20608962
240	0xbd3c0738	-0.04590532
241	0x3d7f9225	0.062395234
242	0xbc1bd6ab	-0.00951163
243	0xbd54dde6	-0.05196943
244	0xbeff6262	-0.49879748
245	0xbdec3360	-0.115332365
246	0xbdd3cbc7	-0.10341602
247	0x3dfcefcd	0.12350426
248	0x3ea29462	0.31753832
249	0x3e79d2ff	0.24396895
250	0x3e5df22e	0.21674415
251	0xbd158bed	-0.036510397
252	0xbe3f15b5	-0.18660624
253	0x3dc778f6	0.09739868
254	0xbd3440ba	-0.04400704
255	0x3b94071f	0.0045174505

fc1.bias f4 [128]
0	0xbe631fb7	-0.22180067
1	0x3d43a33b	0.04776309
2	0xbea333f0	-0.31875563
3	0xbd92154a	-0.07132967
4	0xbdc39fd7	-0.095519714
5	0xbea691ac	-0.32533014
6	0xbc9a3658	-0.018824741
7	0x3e183fa9	0.14868034
8	0xbed10166	-0.4082138
9	0xbed16119	-0.40894392
10	0xbed952fe	-0.4244613
11	0xbdc10d0f	-0.09426319
12	0xbec2ecc9	-0.38071278
13	0xbe19b1ef	-0.15009283
14	0x3ea0afdc	0.3138417
15	0xbe636649	-0.22206987
16	0xbd8bb860	-0.06822276
17	0xbe5480f6	-0.2075232
18	0x3dfc0d69	0.12307245
19	0xbea83093	-0.3284956
20	0xbe7e1024	-0.24810845
21	0xbe9a6916	-0.301583
22	0xbe8b4d60	-0.2720747
23	0xbea7dc43	-0.32785234
24	0xbe8aaaa6	-0.2708332
25	0x3e816c33	0.25277862
26	0xbe3b2cb2	-0.18278769
27	0xbf16b9d9	-0.5887733
28	0xbe71c525	-0.23610361
29	0xbe867a7d	-0.26265326
30	0xbebd0482	-0.36917502
31	0xbd19235f	-0.037387248
32	0xbe7a8b19	-0.24467124
33	0xbf24343d	-0.6414221
34	0xbe961f33	-0.29320678
35	0x3daf46b3	0.08558407
36	0xbecdd6ae	-0.4020285
37	0xbf097d98	-0.53707266
38	0x3e0b9a39	0.1363305
39	0xbf198fda	-0.59985125
40	0xbe3e8242	-0.18604377
41	0xbed156ea	-0.40886623
42	0xbed9ada3	-0.42515287
43	0xbe0b747a	-0.13618651
44	0xbe34a713	-0.17641859
45	0xbe3b9e61	-0.18322136
46	0xbf1b2456	-0.6060232
47	0xbf11f605	-0.5701602
48	0xbf2d7ef3	-0.67771834
49	0xbe6f3bd4	-0.23362666
50	0xbe214b06	-0.15751275
51	0xbf0c39f5	-0.54775935
52	0xbf1af15d	-0.6052454
53	0xbef2e681	-0.47441486
54	0xbe2faff6	-0.17156968
55	0xbf750a55	-0.9571889
56	0xbf0badf4	-0.54562306
57	0xbd4aac80	-0.049480915
58	0xbed0cac4	-0.40779698
59	0xbe49de98	-0.19713819
60	0xbf1d7101	-0.61500555
61	0xbf08c066	-0.53418577
62	0xbe84ae98	-0.25914454
63	0x3e0bad54	0.13640338
64	0xbf24d0b1	-0.6438094
65	0xbf24933b	-0.64287156
66	0xbe83a0f0	-0.25708723
67	0xbdb95a0e	-0.0905038
68	0xbe759fbd	-0.23986717
69	0xbdb23bb1	-0.087027915
70	0xbea723fb	-0.32644638
71	0xbf082ac9	-0.53190285
72	0xbf2f7a0b	-0.685456
73	0xbea81338	-0.32827163
74	0xbe51014a	-0.20410648
75	0xbf10a12b	-0.5649592
76	0x3ded0304	0.11572841
77	0xbe4f19f4	-0.20224744
78	0xbf237217	-0.6384596
79	0xbda1e8d6	-0.07905738
80	0xbee9f548	-0.45694947
81	0xbea66797	-0.32500908
82	0xbf0e0459	-0.55475384
83	0xbeefdcbc	-0.46848094
84	0xbe9353c0	-0.28774834
85	0xbe91fcd1	-0.28513196
86	0xbdbea6df	-0.09309172
87	0xbe7ba272	-0.24573687
88	0xbefccff4	-0.49377406
89	0xbe35aecb	-0.1774246
90	0xbe970ff0	-0.29504347
91	0xbf549f8d	-0.83055955
92	0xbeddb778	-0.43304038
93	0x3de453d0	0.111487985
94	0xbf0f2888	-0.5592122
95	0xbe28e27c	-0.16492647
96	0xbde33ab7	-0.11095183
97	0xbf051e08	-0.5199895
98	0xbf0a74ad	-0.54084283
99	0xbeba122d	-0.36341992
100	0xbf00c326	-0.5029777
101	0x3d8ced08	0.068811476
102	0xbf50456b	-0.81355923
103	0xbea9526a	-0.3307069
104	0x3e06ae8b	0.1315252
105	0xbef50e08	-0.47862267
106	0xbdff5503	-0.124673866
107	0xbe91db00	-0.28487396
108	0xbf057342	-0.52128994
109	0xbeee2fc1	-0.46520808
110	0xbdd968c2	-0.10615684
111	0xbe74c7a5	-0.23904283
112	0xbf269a35	-0.6507905
113	0xbeb538dd	-0.35394946
114	0xbe5fa471	-0.21840073
115	0xbf2f8db5	-0.685756
116	0xbe93e8da	-0.2888859
117	0xbf2340b7	-0.6377062
118	0xbf37e1db	-0.71829003
119	0x3ec923ab	0.39285025
120	0xbf615727	-0.8802361
121	0x3d830354	0.06397119
122	0xbd9e4be7	-0.07729321
123	0xbf5ef899	-0.8709808
124	0xbde43fbe	-0.1114497
125	0xbee3c0b2	-0.44482952
126	0xbddfcf3c	-0.10928199
127	0x3ea66b10	0.32503557

fc2.weight f4 [48, 128]
0	0x3eae61b3	0.34058914
1	0x3ee05e1f	0.4382181
2	0x3e22e0f2	0.15906122
3	0x3ede22bf	0.43385884
4	0x3d72365a	0.059133865
5	0xbe05924a	-0.13044086
6	0xbd82c62c	-0.063854545
7	0xbf226983	-0.6344225
8	0x3e53eb6f	0.2069528
9	0xbde35579	-0.11100287
10	0x3efc478d	0.4927334
11	0xbed3526d	-0.41273823
12	0x3e38ec84	0.18058974
13	0x3e517288	0.20453846
14	0xbca63234	-0.02028761
15	0xbd9de284	-0.0770922
16	0x3d7e6d61	0.06211603
17	0xbf475e8c	-0.7787864
18	0xbda3e0fc	-0.08001897
19	0x3e5cf8a8	0.2157923
20	0xbda694d5	-0.08133856
21	0xbdaac7a1	-0.083388574
22	0xbe9087a5	-0.2822849
23	0xbe5dfcf8	-0.21678531
24	0x3dbe962e	0.09305988
25	0x3d8d76d9	0.06907434
26	0x3f07ef4f	0.5309953
27	0x3e5a9eb6	0.21349606
28	0xbd815ab8	-0.06316131
29	0xbe647cf7	-0.22313295
30	0x3e9e440b	0.30911288
31	0x3e2c9705	0.16854484
32	0x3ef9e241	0.4880543
33	0x3d824d4c	0.063623995
34	0xbe55b605	-0.20870216
35	0x3e8f52b3	0.27992782
36	0x3d2cf30b	0.04222397
37	0xbef62c98	-0.48080897
38	0x3e612edf	0.21990536
39	0xbd87c8fe	-0.06630133
40	0x3ebdab8e	0.37044948
41	0x3ec5dbc5	0.38644233
42	0xbbacebe5	-0.0052771443
43	0x3ea32a54	0.3186823
44	0x3f42f364	0.76152635
45	0xbc481b7e	-0.012213586
46	0xbe2590c0	-0.16168499
47	0xbf2ac1b4	-0.6670182
48	0xbdeb0134	-0.11474839
49	0xbe6c04b1	-0.23048665
50	0x3e665d38	0.22496498
51	0x3eabfb17	0.33590004
52	0x3d364788	0.04450181
53	0xbeb12c70	-0.34604216
54	0x3e7741f0	0.24146247
55	0x3eaebca7	0.34128305
56	0x3e61bfb4	0.22045785
57	0x3e363d80	0.17796898
58	0xbf215f19	-0.6303573
59	0xbcb213e4	-0.021738
60	0x3eedcf1a	0.46447068
61	0xbec044a6	-0.37552375
62	0x3a5a5c50	0.00083297957
63	0x3e8dd838	0.27704024
64	0x3e2d0cb2	0.16899374
65	0xbe45c32b	-0.19312732
66	0x3ea34b33	0.3189331
67	0x3ec29442	0.38003737
68	0x3ea91194	0.33021224
69	0x3e120921	0.14261295
70	0xbc7b4b45	-0.01533777
71	0xbd6402ff	-0.05566692
72	0x3e13dbd9	0.14439334
73	0xbf86529b	-1.0493959
74	0x3ddf155a	0.10892744
75	0xbf30762b	-0.6893031
76	0xbe31509f	-0.17315911
77	0x3e3d5660	0.1848998
78	0xbdadf178	-0.08493322
79	0xbe87e6cc	-0.26543272
80	0x3eefe710	0.46855974
81	0x3e0677d4	0.13131648
82	0xbd93ee32	-0.072231665
83	0xbeb85a0e	-0.36006206
84	0x3f598315	0.8496564
85	0xbed7db16	-0.42159337
86	0x3eef5ee0	0.4675207
87	0x3e7f3c4a	0.24925342
88	0xbed7c49f	-0.42142197
89	0xbeb74712	-0.3579641
90	0x3eb1fba7	0.34762308
91	0xbda8a3d6	-0.08234374
92	0x3e11df8c	0.14245433
93	0x3c042f9a	0.00806799
94	0xbedc6fe8	-0.43054128
95	0x3d0dd1aa	0.03462378
96	0xbdf0476c	-0.11732373
97	0xbe99c821	-0.300355
98	0xbeb4f58f	-0.35343596
99	0xbe1b0b59	-0.15141048
100	0xbf333a1f	-0.7001056
101	0xbdbfd92d	-0.09367595
102	0xbee551a1	-0.4478884
103	0x3d282838	0.04105398
104	0x3e61fa3c	0.22068113
105	0x3de552ad	0.1119741
106	0x3e6ac84f	0.22927974
107	0xbcb8b091	-0.02254513
108	0x3e8f8934	0.28034365
109	0xbef984cc	-0.48734128
110	0xbe641c2c	-0.22276372
111	0x4011dca0	2.279091
112	0xbf1562c8	-0.58353853
113	0xbe8751b9	-0.26429537
114	0x3ef627df	0.48077294
115	0xbecb6bdb	-0.39730725
116	0xbd82be44	-0.063839465
117	0xbe2c5581	-0.16829492
118	0x3f03567e	0.5130385
119	0x3e2feca5	0.17180116
120	0xbed5d808	-0.4176638
121	0xbe855618	-0.26042247
122	0x3e64a55c	0.22328705
123	0xbdb1c083	-0.08679297
124	0xbec1abb2	-0.37826306
125	0xbe2fb201	-0.17157747
126	0xbebb35c6	-0.36564463
127	0x3e44935b	0.19196837
128	0x3c22b04b	0.009929727
129	0xbe1c9cdd	-0.15294214
130	0xbe73ad0f	-0.23796485
131	0xbec04c1b	-0.37558064
132	0x3f118f69	0.5685945
133	0xbe11f1e0	-0.14252424
134	0x3e095f5d	0.13415284
135	0x3e273d65	0.16332014
136	0xbf11522e	-0.5676602
137	0xbf781ad7	-0.96915954
138	0xbfc87f44	-1.5663838
139	0xbf03d46f	-0.5149602
140	0x3e36ecf5	0.1786383
141	0x3ee079a0	0.43842793
142	0xbeb5a534	-0.35477602
143	0xbf2a506f	-0.6652898
144	0xbe91095e	-0.2832746
145	0xbe8696f9	-0.26287058
146	0x3e823b95	0.25436082
147	0xbea2b9df	-0.31782433
148	0xbe977fc2	-0.2958966
149	0xbf0b9d51	-0.5453692
150	0xbea51eee	-0.3225016
151	0xbe329809	-0.1744081
152	0x3f42256c	0.7583835
153	0x3eca4adb	0.39510235
154	0x3f5b9fe1	0.8579083
155	0xbf074eee	-0.5285481
156	0xbeea8bb2	-0.45809704
157	0xbe4fe340	-0.20301533
158	0x3f1eaa64	0.61978745
159	0xbe3e1795	-0.18563683
160	0x3f0de48b	0.55426854
161	0xbf9b2132	-1.2119505
162	0x3daa3d79	0.08312506
163	0x3e2c274b	0.16811864
164	0x3e20dae5	0.15708502
165	0x3d65bc42	0.05608774
166	0xbc7674a4	-0.015042458
167	0x3d978ac9	0.07399518
168	0xbebe83b2	-0.3720985
169	0xbebfa77d	-0.3743247
170	0x3eaa153b	0.33219323
171	0xbc0f6a18	-0.008753322
172	0xbe9e28d4	-0.30890524
173	0x3e9c9f2c	0.30590189
174	0xbebcb15b	-0.3685406
175	0xbf804271	-1.0020276
176	0xbf30f015	-0.69116336
177	0x3f11cc8a	0.56952727
178	0xbe79e5fe	-0.24404141
179	0x3e488370	0.1958139
180	0x3ea32d65	0.3187057
181	0xbd1e63a8	-0.03866926
182	0xbdfabab4	-0.12242642
183	0x3e4cd02e	0.20001289
184	0x3e97c206	0.29640216
185	0x3f1905c2	0.5977441
186	0xbf1da11a	-0.61573946
187	0x3f6b3406	0.91876256
188	0x3e8c6bb6	0.27425927
189	0x3d7036cf	0.05864602
190	0x3dd09958	0.10185498
191	0x3eb5ff7d	0.35546485
192	0xbc226ba5	-0.00991336
193	0x3efadd58	0.48996997
194	0xbeb4746a	-0.35245067
195	0x3e238789	0.15969671
196	0xbe288a28	-0.16458952
197	0xbd10e740	-0.035376787
198	0xbf3b285f	-0.73108476
199	0x3cbdf460	0.023187816
200	0xbdac695b	-0.084185325
201	0xbee15d56	-0.44016522
202	0x3ec67064	0.38757622
203	0x3ec380ea	0.3818429
204	0x3e822c97	0.25424644
205	0xbf0400d3	-0.5156376
206	0xbf886afd	-1.065765
207	0x3c997c55	0.018736044
208	0x3e9fb092	0.311894
209	0x3ef1f7ec	0.47259462
210	0xbcb039fe	-0.021512028
211	0x3ead30f0	0.338264
212	0xbcb4cc8b	-0.02207019
213	0xbe58313c	-0.21112531
214	0xbeafe9fd	-0.34358206
215	0xbf906edd	-1.1283833
216	0xbdb286c2	-0.08717109
217	0xbe91866d	-0.2842287
218	0x3d9c2360	0.07623935
219	0x3eddebae	0.43343872
220	0xbe96b559	-0.29435232
221	0xbcefbb44	-0.0292641
222	0xbf1a86be	-0.6036185
223	0xbe1970e9	-0.14984478
224	0x3e22f49c	0.15913624
225	0xbf6f928e	-0.93583
226	0x3e522f09	0.20525755
227	0xbd0563a9	-0.032565746
228	0xbd9b8289	-0.07593257
229	0x3dac2a46	0.084065005
230	0xbfc4f9ef	-1.5388774
231	0xbda1416e	-0.07873808
232	0xbeed64b3	-0.4636589
233	0xbe4a3d5a	-0.19749966
234	0xbecc0058	-0.39844012
235	0xbded8229	-0.11597092
236	0x3e44ec2e	0.1923072
237	0xbeb7aafb	-0.35872635
238	0xbebb6bc5	-0.3660566
239	0x3f222772	0.6334144
240	0xbe8c1a72	-0.27363926
241	0x3e42b2f9	0.19013585
242	0x3e7f0a33	0.24906234
243	0x3ea65435	0.3248612
244	0xbea6ccfe	-0.32578272
245	0x3f01cf62	0.50707066
246	0x3e0c81b9	0.1372136
247	0x3ec0b7e2	0.3764029
248	0x3f2582d6	0.64652765
249	0xbe0c3e91	-0.13695742
250	0xbe544921	-0.20731021
251	0xbe60c926	-0.21951732
252	0x3eb8a7b7	0.36065456
253	0x3ed13d8a	0.40867263
254	0x3e01b4b0	0.12666583
255	0x3e081a65	0.13291319

fc2.bias f4 [48]
0	0xbd421f86	-0.047393344
1	0x3d2d445b	0.042301517
2	0x3ef38088	0.47559
3	0xbe941ab0	-0.2892661
4	0x3eecbfac	0.46239984
5	0xbf16e377	-0.58940834
6	0xbe6dd7a1	-0.23226787
7	0x3eceeb7a	0.4041403
8	0xbebb8dff	-0.36631772
9	0x3ea89efd	0.32933798
10	0xbf041ed3	-0.51609534
11	0xbf37fa07	-0.71865886
12	0xbed8e63c	-0.42363155
13	0xbe7b9578	-0.24568737
14	0x3e83eaa9	0.2576497
15	0xbe6ab2c7	-0.2291976
16	0x3db13fc1	0.08654738
17	0x3d6dc6ae	0.058050804
18	0xbe057da0	-0.13036203
19	0x3e3f37bd	0.18673606
20	0x3eb272c5	0.34853187
21	0xbe0714e3	-0.13191561
22	0xbf584df1	-0.8449393
23	0xbdc44f57	-0.095854454
24	0xbf175c3a	-0.591251
25	0xbe5e75ce	-0.21724626
26	0x3e711a10	0.23545098
27	0xbe6f12ae	-0.2334697
28	0xbde56c38	-0.11202282
29	0x3f05ea54	0.5231068
30	0x3e3edcd8	0.18638933
31	0x3ddbe405	0.10736851
32	0xbd76235b	-0.06009231
33	0xbdae59dd	-0.08513234
34	0xbe0591f5	-0.1304396
35	0xbe2372a0	-0.15961695
36	0x3e99930e	0.29995006
37	0xbda9defb	-0.08294483
38	0xbf4c1b92	-0.7972957
39	0x3dfffa45	0.12498907
40	0x3da0224a	0.0781904
41	0xbe7a3888	-0.24435627
42	0x3d6030c8	0.05473402
43	0xbd17c1d9	-0.037050102
44	0xbecb09d2	-0.3965593
45	0x3d92ec13	0.07173934
46	0x3e74eff2	0.23919657
47	0x3ebd5a19	0.36982802

fc3.weight f4 [24, 48]
0	0x3e42ba03	0.1901627
1	0x3e995d23	0.2995387
2	0xbd1e029f	-0.03857672
3	0xbedb5fbb	-0.42846474
4	0x3ec1f02e	0.37878555
5	0xbf99b2e9	-1.2007724
6	0xbeb762ea	-0.35817653
7	0xbf0ff2a8	-0.5622964
8	0xbd9d8e32	-0.07693137
9	0x3f27e55b	0.65584344
10	0xbd3abeb7	-0.045592036
11	0xbdb8eaf7	-0.09029191
12	0x3e4e8a4a	0.2016994
13	0xbdc65fb8	-0.09686226
14	0xbeb1df1d	-0.34740534
15	0xbe8cc759	-0.2749584
16	0x3d3841ae	0.044984512
17	0xbe737e69	-0.2377869
18	0x3f448c3a	0.7677647
19	0xbedbf11a	-0.42957383
20	0x3e0e7e64	0.13915402
21	0x3eef9b49	0.4679816
22	0xbf83b49d	-1.0289494
23	0x3e24e19b	0.16101687
24	0xbc05d829	-0.008169212
25	0xbe817d4a	-0.252909
26	0xbe20c72c	-0.15700978
27	0xbec6aa80	-0.38801956
28	0x3decb248	0.11557442
29	0xbe160206	-0.1464921
30	0x3b928e9b	0.0044725663
31	0x3d7a53d7	0.061115112
32	0x3ce9f7c4	0.028560527
33	0x3d55ab81	0.052165512
34	0xbd23e311	-0.04001147
35	0x3f023f07	0.5087742
36	0x3e0d0dab	0.13774745
37	0x3ec65724	0.38738358
38	0x3f948ba5	1.1605116
39	0xbecc6bdb	-0.39926037
40	0x3c3305bd	0.010926661
41	0xbd0c26db	-0.034216743
42	0xbe79b961	-0.24387123
43	0xbe31d3d5	-0.17365964
44	0x3ea6feb1	0.3261619
45	0xbe6794b6	-0.22615322
46	0x3e205bfa	0.15660086
47	0x3ca62abc	0.02028405
48	0x3d9dbd50	0.07702124
49	0x3d31b62b	0.04338662
50	0x3e25c485	0.16188248
51	0xbec0e759	-0.37676504
52	0xbd62564e	-0.055258088
53	0x3f2d9fea	0.67822134
54	0x3e5a7e39	0.21337213
55	0x3e3dbfe1	0.18530227
56	0x3e2d0dcb	0.16899793
57	0x3d74d416	0.059772573
58	0xbf394bbb	-0.7238118
59	0xbe85f3ca	-0.2616256
60	0xbf77fcfb	-0.9687039
61	0x3eae95bf	0.34098622
62	0x3ec26714	0.37969267
63	0x3e0cd5ad	0.13753386
64	0x3cd7cf85	0.02634407
65	0xbc227bf2	-0.009917246
66	0xbf6c9142	-0.92409146
67	0x3eb70286	0.35744113
68	0xbe95c11b	-0.2924889
69	0x3ed51b79	0.41622522
70	0x3f321365	0.69560844
71	0x3f16f1af	0.5896253
72	0x3f0b2f61	0.5436917
73	0x3db4d55a	0.08829756
74	0xbd17a6a5	-0.03702416
75	0xbec6070d	-0.38677254
76	0x3d5b7cd4	0.053585842
77	0x3dc4d927	0.09611731
78	0x3e854906	0.26032275
79	0xbf1862db	-0.5952584
80	0xbf1ba655	-0.6080068
81	0xbf7f4e28	-0.9972863
82	0x3ca4d322	0.020120207
83	0xbe15bd96	-0.14623103
84	0x3e04f7cd	0.12985153
85	0xbe667a6c	-0.22507638
86	0xbf86e683	-1.0539097
87	0x3e21458c	0.15749186
88	0xbdd8f70f	-0.10593998
89	0xbf4070a7	-0.75171894
90	0x3ea49926	0.32148093
91	0x3e924000	0.28564453
92	0xbee14a66	-0.44002074
93	0x3d69bdb1	0.05706567
94	0xbe30366b	-0.17208259
95	0xbe2fbf6b	-0.17162864
96	0xbf4965f1	-0.78671175
97	0xbe4f3333	-0.20234375
98	0xbf37c2cb	-0.71781605
99	0x3dabebe5	0.08394603
100	0xbed714b0	-0.4200797
101	0xbef53033	-0.47888336
102	0xbd819bd9	-0.06328554
103	0xbf476597	-0.7788939
104	0xbce07e0d	-0.027403856
105	0xbe7388cf	-0.23782657
106	0x3e6c054e	0.23048899
107	0x3de72c78	0.112877786
108	0x3ed86d9b	0.42271122
109	0xbe938d24	-0.2881862
110	0xbf08188e	-0.5316247
111	0xbe2a30f3	-0.16620235
112	0x3e3b1a8d	0.18271847
113	0xbe821750	-0.2540841
114	0xbf192c7e	-0.59833515
115	0xbf1bbc43	-0.6083414
116	0xbf585071	-0.84497744
117	0xbce54b11	-0.027989896
118	0x3f6e7657	0.9314932
119	0xbd2c1e44	-0.04202105
120	0x3f2920a1	0.6606541
121	0x3ef405f6	0.47660798
122	0xbe402a0b	-0.18766038
123	0xbf0714c5	-0.52766067
124	0xbe209760	-0.15682745
125	0xbf6d60fb	-0.92726105
126	0xbf5b5799	-0.8568054
127	0xbf45a616	-0.7720655
128	0x3e0919e6	0.13388786
129	0xbc01b9c4	-0.007917825
130	0xbf23e2fa	-0.64018214
131	0xbe98dade	-0.29854482
132	0xbf501607	-0.8128361
133	0xbe19ef48	-0.15032685
134	0x3f684de8	0.90743876
135	0x3ee12626	0.43974417
136	0xbf0f4c2f	-0.5597562
137	0xbe078ba9	-0.1323687
138	0x3e8b685f	0.27228066
139	0x3ea94353	0.33059177
140	0xbe3d0e7f	-0.18462561
141	0xbeef74f9	-0.4676893
142	0xbf32b150	-0.6980181
143	0xbedfb120	-0.43689823
144	0x3eac1f63	0.33617696
145	0x3f25683d	0.6461218
146	0x3f2dd23e	0.6789893
147	0xbe4c9b00	-0.19981003
148	0x3b97b9a8	0.0046302862
149	0xbfa05e0d	-1.2528702
150	0xbe6cc1b5	-0.23120768
151	0x3ee6fb2e	0.4511351
152	0x3de7b66a	0.113140896
153	0xbee5bc28	-0.44870114
154	0x3de310fd	0.11087225
155	0xbdff6f84	-0.12472442
156	0xbd7cb933	-0.061700057
157	0xbe952554	-0.29130042
158	0xbe140c2f	-0.14457773
159	0xbd85c8c0	-0.06532431
160	0x3d95ec1f	0.07320427
161	0x3e1799aa	0.14804712
162	0x3f0ea082	0.55713665
163	0xbf06f455	-0.5271657
164	0x3e59ca31	0.21268536
165	0xbe5cc238	-0.21558464
166	0xbecc0c4e	-0.39853138
167	0xbe7aea59	-0.24503459
168	0x3ea97ab8	0.3310144
169	0x3f0ca475	0.5493844
170	0x39c71f9e	0.00037979794
171	0x3d886795	0.06660382
172	0xbd68901b	-0.056778055
173	0x3dc3c96d	0.09559903
174	0x3d5f70c9	0.05455092
175	0xbea52d46	-0.32261103
176	0xbea708f8	-0.3262403
177	0x3e12029b	0.14258806
178	0x3e8fbf2e	0.28075546
179	0xbe420a8d	-0.18949337
180	0x3e9cf68a	0.30656844
181	0x3c1f77f0	0.009733185
182	0x3e60e03a	0.21960536
183	0x3cff33a4	0.031152554
184	0xbea697c3	-0.3253766
185	0xbeb9b5be	-0.3627147
186	0xbd7fd470	-0.062458456
187	0xbdd0e928	-0.10200721
188	0x3efa0a40	0.48835945
189	0xbd1be678	-0.03806159
190	0xbd720121	-0.059083108
191	0xbe9c9317	-0.3058097
192	0x3dd9b3da	0.10630007
193	0xbd28dfff	-0.041229244
194	0x3ee63697	0.44963524
195	0xbdf7a6a0	-0.12092328
196	0x3e44124c	0.19147605
197	0x3ecf8bc2	0.40536314
198	0xbe732cbc	-0.23747534
199	0xbe80c6ae	-0.2515158
200	0x3f32280c	0.69592357
201	0x3e77e4a7	0.24208318
202	0xbec946fb	-0.39311966
203	0xbec30779	-0.3809164
204	0xbd9d0015	-0.07666031
205	0x3ed8c2bf	0.4233608
206	0xbe2c74c5	-0.16841419
207	0xbe134388	-0.1438123
208	0x3f23faee	0.64054763
209	0xbdd73519	-0.105081744
210	0x3d9440ec	0.07238945
211	0x3e33d147	0.17560302
212	0x3dbd0a46	0.09230475
213	0x3da67e76	0.08129589
214	0x3d1d453d	0.03839611
215	0xbe5ad0bc	-0.21368688
216	0xbeb9e412	-0.36306816
217	0xbe92a149	-0.28638676
218	0x3d9fc5ec	0.078014225
219	0x3f88cb81	1.0687104
220	0xbe27fcd1	-0.16405036
221	0xbde42831	-0.111404784
222	0xbe117a65	-0.14206846
223	0xbbec7aee	-0.007216803
224	0xbe73775a	-0.23775998
225	0x3dd0f8ec	0.10203728
226	0x3ee8ceba	0.4547022
227	0x3eca9fdb	0.39575085
228	0xbda85a49	-0.082203455
229	0xbe5451ff	-0.20734404
230	0xbe5f5419	-0.21809424
231	0xbd90006a	-0.07031329
232	0x3e598f56	0.21246085
233	0x3e2c2919	0.16812553
234	0x3ea439a2	0.3207522
235	0xbea98b6a	-0.33114177
236	0xbd65c6ec	-0.05609791
237	0x3e604fed	0.2190549
238	0x3ef2dd7a	0.47434598
239	0xbe4ef7f6	-0.20211777
240	0xbe2e146d	-0.1699998
241	0x3ee91900	0.45526886
242	0xbef7942c	-0.48355234
243	0xbf2285d9	-0.63485485
244	0xbdf98870	-0.121842265
245	0xbeb7e21a	-0.3591469
246	0xbfb144e6	-1.3849151
247	0xbf0cc98d	-0.5499504
248	0xbde837e8	-0.11338788
249	0x3ee84819	0.45367506
250	0x3e65f2ac	0.22455853
251	0x3eb10824	0.34576523
252	0x3edad26f	0.42738673
253	0x3de99281	0.114048965
254	0xbe2ef2c5	-0.17084797
255	0xbe9c002f	-0.3046889

fc3.bias f4 [24]
0	0xbe98a852	-0.29815918
1	0xbe423e93	-0.18969183
2	0xbfc1ef72	-1.5151198
3	0x3e371d2d	0.17882223
4	0xbf38d40f	-0.72198576
5	0xbd2d4752	-0.042304344
6	0xbdf240d7	-0.118287735
7	0xbed44807	-0.41461203
8	0xbf495977	-0.7865214
9	0x3f388e0d	0.7209175
10	0x3d93fe94	0.07226291
11	0x3ea1945c	0.31558502
12	0xbe5d7cd1	-0.21629645
13	0x3e8b7405	0.27236953
14	0x3eb18785	0.34673706
15	0x3f1119a2	0.5667974
16	0xbe86c212	-0.2631994
17	0xbf0e1909	-0.5550695
18	0x3cc3204f	0.023819117
19	0xbfa22a2a	-1.2669117
20	0xbee59033	-0.44836578
21	0xbf744abd	-0.9542654
22	0x3e583dab	0.21117274
23	0x3efee2e8	0.4978249

fc4.weight f4 [4, 24]
0	0xbd984214	-0.074344784
1	0x3c191795	0.009344001
2	0x3ed8465f	0.4224119
3	0x3b5c00f5	0.0033569906
4	0xbe5d08ac	-0.2158534
5	0xbd88d400	-0.06681061
6	0xbdaaf742	-0.08347942
7	0x3bf2918a	0.0074026035
8	0xbbf6bbbf	-0.0075297053
9	0xbc95a2e0	-0.018266141
10	0xbe13f1e5	-0.14447744
11	0xbd7bd4ca	-0.06148223
12	0xbe97c01e	-0.2963876
13	0x3d369845	0.04457881
14	0x3df1838d	0.117926694
15	0x3e144999	0.144812
16	0xbe3995f0	-0.18123603
17	0x3e6ba274	0.2301119
18	0xbe8aa08f	-0.2707562
19	0xbeb0622e	-0.34449905
20	0x39537929	0.00020167664
21	0x3ccf6f8f	0.02532175
22	0x3bdf2342	0.006809623
23	0x3e2a2957	0.16617332
24	0xbe1e46a1	-0.1545663
25	0x3c391862	0.011297317
26	0x3de871d4	0.11349836
27	0xbcd4059c	-0.025881581
28	0x3dc77bae	0.09740387
29	0x3dabd0c8	0.08389431
30	0xbeb7863a	-0.35844594
31	0x3e92479a	0.28570253
32	0xbe580d6b	-0.21098869
33	0x3be6318a	0.0070249485
34	0xbe4a7f8c	-0.19775218
35	0x3ed0d429	0.40786865
36	0x3c448ab8	0.011995964
37	0x3c9192a6	0.017770123
38	0xbdf180ed	-0.11792169
39	0x3e4cb4a5	0.19990785
40	0xbe4b3fb5	-0.19848521
41	0x3b8530e2	0.004064665
42	0x3d7ec23c	0.062196955
43	0xbe840405	-0.25784317
44	0x3dc1c0c4	0.09460595
45	0x3e8b72f2	0.27236134
46	0x3d911f66	0.07086067
47	0xbe74d7bb	-0.2391042
48	0x3dd39cf0	0.10332668
49	0xbf19cf8a	-0.60082304
50	0xbdcb25ec	-0.099193424
51	0x3c7b2685	0.015329008
52	0x3d0c6eb3	0.03428526
53	0x3e1468b8	0.14493072
54	0x3cdea453	0.027177965
55	0x3ca811b1	0.020516248
56	0x3cab8f62	0.020942394
57	0xbde3f509	-0.11130721
58	0xbe04e6d2	-0.12978676
59	0xbc891c6e	-0.01673719
60	0x3d19ab40	0.037516832
61	0x3f4f5055	0.8098195
62	0x3c57130e	0.013127102
63	0x3dd3d9a2	0.103442445
64	0x3d387d94	0.045041636
65	0xbc179bf2	-0.009253489
66	0xbcd1b69c	-0.02559977
67	0xbe597fd6	-0.21240172
68	0xbdc0db1a	-0.0941679
69	0x3d6b857c	0.057500347
70	0x3ac2d7dc	0.0014865356
71	0xbbef7417	-0.00730754
72	0xbb88f0fd	-0.0041791187
73	0xbbac3f4a	-0.005256568
74	0xbf242c0d	-0.64129716
75	0x3ebf4c5d	0.37362948
76	0xbc341a5f	-0.0109926155
77	0x3d946740	0.07246256
78	0xbdf259eb	-0.11833557
79	0xbd3dcbb1	-0.046336833
80	0xbdfb6a40	-0.12276125
81	0x3ab9bdb8	0.001417092
82	0xb9af7e2a	-0.000334726
83	0xbc0425d7	-0.008065662
84	0xbd1731bd	-0.03691267
85	0xbcc58240	-0.02410996
86	0xbe2a7803	-0.16647343
87	0x3d2fa8c3	0.042885553
88	0x3d2f8862	0.042854674
89	0xbc303105	-0.010753875
90	0x3c9c7581	0.019098999
91	0x3cc56e22	0.024100367
92	0x3d0e61e1	0.034761313
93	0x3e5e16cf	0.21688388
94	0xbe9b9bd7	-0.30392334
95	0x3e025748	0.12728608

fc4.bias f4 [4]
0	0x3f3d755a	0.7400719
1	0x3e64fc97	0.2236198
2	0xbcb222dc	-0.021745138
3	0x3eaccd55	0.33750406
