continuous-control/reacher_checkpoint_critic_final.pth (torch_old, 53748 bytes, 5 tensors)

fc1.weight f4 [128, 37]
-0.24645056 0.3360063 0.024325976 -0.19987185 -0.19389752 -0.11518414 0.52214044 0.1627858
0.537258 0.20038788 -0.005635078 0.5491416 -0.11171788 0.056124423 0.19156663 -0.055438656
0.29274 0.25848332 0.2961606 0.09029306 -0.528961 -0.02178807 -0.16611977 0.0006046701
-0.60176134 0.101006284 -0.042423524 0.65348774 0.11788914 -0.071406096 -0.60461575 -0.039186705
0.08699623 0.2897117 0.2413967 0.7852642 -0.18109427 0.03901202 0.0056759794 -0.25913042
-0.23573996 -0.23969391 0.6350213 0.14576241 0.026230143 0.031205714 -0.03872593 0.040051427
0.03771367 -0.018064382 -0.19142377 0.1394555 0.28390983 -0.089358374 0.1121753 -0.12702097
-0.11348697 0.02937007 0.05326509 0.0057044113 -0.15569235 -0.00020612599 0.015192553 0.04784012
0.47875616 -0.35031664 0.08825911 -0.46185556 0.055743404 -2.3947825 0.09753306 -0.109799564
-0.011329568 0.18382926 0.43459493 0.48607075 0.14500001 -0.36587507 -0.30216837 0.29587093
-0.057851404 0.050924562 -0.013406414 0.15076779 0.012447258 0.061327714 -0.008683785 -0.59784555
-0.07472744 -0.19931372 -0.14403118 0.053382557 -0.0061652036 0.096800275 -0.039406464 -0.072103254
-0.0021882083 -0.28267995 0.049293052 -0.09359003 0.08673402 0.8051784 0.3173555 0.068245865
-0.8498851 -0.062868364 1.4721993 -0.03563674 -0.11077222 0.130098 -0.0017130176 -0.098143056
0.16252843 0.09628059 -0.10609965 0.09319751 -0.30935413 -0.18759146 0.03824892 -0.2095337
-0.07550959 -0.030299645 0.0020115739 -0.044642884 0.088221036 0.019870318 0.03159691 0.12713812
0.09658578 -0.06457947 0.12725484 -0.009772404 0.10345884 -0.04342788 0.13398135 -0.04382808
0.011601546 0.09355359 0.46800554 -0.08189786 0.042356916 -0.36774832 -0.00035711378 2.8383565
-0.12822919 0.008540002 -0.152391 -0.2666966 -0.022394076 0.3421043 0.32906055 -0.108952425
0.06283892 0.066661365 0.3320973 0.09056468 0.58807564 0.0024623636 0.11074626 0.17964157
0.035010822 0.15973546 0.054311536 -0.60344434 0.018025931 -0.07007064 0.088690795 -0.22479266
0.032190856 -0.005003586 -0.16066894 0.02252044 0.018974744 -0.20913744 0.15995191 0.4584611
0.4327555 0.037814982 -0.4608038 0.062309302 -1.678785 0.09234796 0.13467102 -0.26667434
-0.19324373 0.10139176 -0.44136894 -0.025162837 0.37241974 -0.14901456 -0.33006316 0.38063955
-0.056115493 -0.21165477 0.038682077 -0.032854963 -0.047083687 -0.013109153 -0.19338174 -0.011763902
-0.06566534 0.10443413 -0.010442771 0.064020015 -0.04364557 0.05538316 -0.03973484 -0.12091051
-0.17373918 -0.0037008405 0.018553372 -0.43886298 -0.6432822 -0.028850274 -0.0075826496 0.5889287
-0.04354426 -0.53681964 0.025294984 -0.25930083 -0.073845394 0.12202638 0.16681944 0.5983452
0.5257967 -0.17747682 -0.042088687 0.21575598 0.80625546 -0.1775967 -0.16892426 0.14526162
0.13682447 0.17913759 0.03382182 -0.26597455 -0.53149533 -0.5338236 -0.11253407 0.14267623
-0.26542357 -0.072259896 -0.007871631 0.10727512 0.09772492 -0.12835985 -0.26937062 -0.109383605
0.24152328 0.48378268 0.24127457 -0.019340746 -0.57844794 -0.07484115 -0.0537135 -0.06734031
00000000: 895d 7cbe 0509 ac3e 4547 c73c 35ab 4cbe
00000010: 128d 46be aae5 ebbd ffaa 053f 52b1 263e
00000020: be89 093f 7b32 4d3e 76a6 b8bb 8b94 0c3f
00000030: 58cc e4bd b9e2 653d 0b2a 443e a513 63bd
00000040: 04e2 953e ed57 843e 5da2 973e 91eb b83d
00000050: fd69 07bf e57c b2bc 4d1b 2abe b982 1e3a
00000060: 080d 1abf 62dc ce3d 4ac4 2dbd f94a 273f
00000070: dd6f f13d 5c3d 92bd 19c8 1abf 3d82 20bd
00000080: 142b b23d 1855 943e b230 773e 1307 493f
00000090: c770 39be 11cb 1f3d 91fd b93b beac 84be
000000a0: d165 71be 5272 75be c290 223f be42 153e
000000b0: 99e0 d63c 20a3 ff3c 159f 1ebd f70c 243d
000000c0: a679 1a3d c1fb 93bc 9804 44be 6ccd 0e3e
000000d0: a15c 913e 8601 b7bd 2abc e53d c911 02be
000000e0: db6b e8bd 8099 f03c 7f2c 5a3d 12ec ba3b
000000f0: d16d 1fbe 8623 58b9 30ea 783c 00f4 433d
00000100: 871f f53e b45c b3be 31c1 b43d 5578 ecbe
00000110: 3253 643d 1e44 19c0 6abf c73d 98de e0bd
00000120: a79f 39bc bd3d 3c3e 3a83 de3e 44de f83e
00000130: e27a 143e fa53 bbbe d0b5 9abe 657c 973e
00000140: 98f5 6cbd 4696 503d 93a6 5bbc df62 1a3e
00000150: 96ef 4b3c c532 7b3d 6f46 0ebc 680c 19bf
00000160: b30a 99bd e518 4cbe e97c 13be aba7 5a3d
00000170: 7a05 cabb 393f c63d ac68 21bd dfaa 93bd
00000180: 0b68 0fbb 6dbb 90be 83e7 493d 21ac bfbd
00000190: 9ba1 b13d 2c20 4e3f 6c7c a23e 7dc4 8b3d
000001a0: 1292 59bf 21c1 80bd 0771 bc3f d5f7 11bd
000001b0: 8cdc e2bd 6938 053e 5587 e0ba 3aff c8bd
000001c0: da6d 263e c22e c53d c64a d9bd 56de be3d
000001d0: aa63 9ebe fa17 40be e6aa 1c3d 0190 56be
000001e0: c6a4 9abd f636 f8bc 9cd4 033b 75db 36bd
000001f0: 3bad b43d 14c7 a23c c36b 013d 7f30 023e
00000200: c4ce c53d 3e42 84bd 184f 023e 6f1c 20bc
00000210: 3ae2 d33d 6fe1 31bd 6832 093e 1385 33bd
00000220: 6914 3e3c 0699 bf3d 6c9e ef3e 11ba a7bd
00000230: 727e 2d3d 8249 bcbe 003b bbb9 a2a7 3540
00000240: 834e 03be 5deb 0b3c 630c 1cbe 758c 88be
00000250: c873 b7bc 4b28 af3e a07a a83e 7322 dfbd
00000260: b1b1 803d c185 883d a808 aa3e fa79 b93d
00000270: 208c 163f 9b5f 213b efce e23d f6f3 373e
00000280: 8267 0f3d b191 233e c675 5e3d 547b 1abf
00000290: 1eab 933c 3281 8fbd 85a3 b53d 0c30 66be
000002a0: 8fda 033d 1ff5 a3bb 6686 24be c97c b83c
000002b0: ec70 9b3c 2028 56be 6fca 233e 6abb ea3e
000002c0: 2192 dd3e e2e3 1a3d 7aee ebbe 0a38 7f3d
000002d0: 6de2 d6bf ed20 bd3d 33e7 093e 8a89 88be
000002e0: afe1 45be 7ca6 cf3d 1cfb e1be 4b22 cebc
000002f0: cdad be3e 4697 18be 0afe a8be 30e3 c23e
00000300: 5cd9 65bd 07bc 58be 1971 1e3d ed92 06bd
00000310: d3da 40bd c6c7 56bc dd05 46be 62bd 40bc
00000320: 8d7b 86bd 90e1 d53d 2818 2bbc ed1c 833d
00000330: b2c5 32bd 74d9 623d 00c1 22bd ee9f f7bd
00000340: afe8 31be cd89 72bb 3efd 973c a6b2 e0be
00000350: 24ae 24bf 6957 ecbc e077 f8bb 08c4 163f
00000360: 775b 32bd 036d 09bf 6d37 cf3c 14c3 84be
00000370: 413c 97bd f7e8 f93d b7d2 2a3e 272d 193f
00000380: 9d9a 063f 7cbc 35be 3065 2cbd 23ef 5c3e
00000390: c266 4e3f e9db 35be 7bfa 2cbe 76bf 143e
000003a0: b71b 0c3e d86f 373e c088 0a3d d12d 88be
000003b0: 1410 08bf aaa8 08bf 4378 e6bd b819 123e
000003c0: 99e5 87be fffc 93bd 03f8 00bc 0fb3 db3d
000003d0: 0124 c83d c470 03be f2ea 89be 8304 e0bd
000003e0: e151 773e 5db2 f73e ae10 773e 7c70 9ebc
000003f0: 2a15 14bf 5146 99bd b002 5cbd b7e9 89bd

fc1.bias f4 [128]
-0.57993394 -0.48359588 -0.8580792 -0.48024356 -0.52499616 0.51505303 -0.41364035 -0.42774397
-1.1281794 -0.5523021 -1.0454077 -0.6932919 -0.8625898 -0.31509933 -0.7371293 -0.3673477
-0.61888415 -0.68069494 -0.7951842 -0.3364187 -0.19503665 0.74372685 0.12625913 -0.5250996
0.18883699 -0.16653952 -0.42857853 -0.45620507 -0.4320677 0.14365363 -0.30280152 -0.52395993
-0.499189 -0.107753985 -0.53128576 -0.5107324 -0.53355134 -0.854165 -0.29227892 -0.43036896
-0.2128279 -0.5878317 -0.23258844 0.3498416 0.1855296 -0.45320514 -0.54113203 -0.093894176
-0.6383528 -0.50774413 0.082246564 0.36878812 -0.11480202 -0.24771515 -0.036591187 -0.6719368
0.01720213 -0.4800677 -0.5981887 -0.27589807 -0.45555133 -1.0751798 0.05744484 -0.7087527
-0.6235832 0.55877876 -0.8115937 -0.96247196 -0.7404145 -0.34202287 -0.80167794 -0.34535387
-0.65816295 -0.7104022 -0.5046452 -1.0386876 -0.13111058 -0.6654718 -0.6295419 -0.68058676
-0.5180823 -0.4764225 0.7341282 -0.37723935 -0.5408406 0.016643217 -0.6998435 -0.4944201
-1.0087193 -0.45502114 -0.3894598 -0.19389997 -0.8700795 -0.89304775 -0.5711133 -0.7584211
-0.51278806 -0.54464585 -0.799351 -0.20167261 -1.0488539 -0.15532044 -0.725988 -0.20428692
-0.8159026 -0.042630993 -0.41088152 -0.518233 -0.55241543 -0.63652897 -0.46197516 -0.43909863
-0.37522316 -0.34428698 -0.12634687 -0.1815591 -0.7419875 -0.23903681 -0.23785166 -0.5610722
-0.46046168 -0.4836953 0.4910427 -0.49871704 -0.41900736 -0.5693397 0.2171673 -0.64900655
00000000: 8d76 14bf e199 f7be 14ab 5bbf 7ce2 f5be
00000010: 2666 06bf 84da 033f abc8 d3be 4201 dbbe
00000020: 2f68 90bf ac63 0dbf ebcf 85bf 947b 31bf
00000030: afd2 5cbf b354 a1be 81b4 3cbf ff14 bcbe
00000040: 316f 1ebf 0642 2ebf 3191 4bbf 123f acbe
00000050: b0b7 47be e264 3e3f 134a 013e ed6c 06bf
00000060: 7c5e 413e 5689 2abe a56e dbbe b693 e9be
00000070: fa37 ddbe f019 133e cd08 9bbe 3d22 06bf
00000080: b395 ffbe 1fae dcbd 5802 08bf 5cbf 02bf
00000090: d296 08bf 8faa 5abf 95a5 95be 5259 dcbe
000000a0: 8fef 59be 237c 16bf aa2b 6ebe 701e b33e
000000b0: 79fb 3d3e 810a e8be a187 0abf 974b c0bd
000000c0: 176b 23bf 85fb 01bf e370 a83d ccd1 bc3e
000000d0: 521d ebbd 0aa9 7dbe a4e0 15bd 0d04 2cbf
000000e0: 7beb 8c3c 6fcb f5be e522 19bf 8342 8dbe
000000f0: 063e e9be 7e9f 89bf 484b 6b3d d170 35bf
00000100: 26a3 1fbf 200c 0f3f 9bc4 4fbf 9064 76bf
00000110: ce8b 3dbf 9f1d afbe c43a 4dbf 39d2 b0be
00000120: 5e7d 28bf ebdc 35bf 6e30 01bf b7f3 84bf
00000130: da41 06be 5c5c 2abf a829 21bf ef3a 2ebf
00000140: 0ba1 04bf a6ed f3be d3ef 3b3f 8425 c1be
00000150: 8874 0abf 5b57 883c f228 33bf a224 fdbe
00000160: b71d 81bf 88f8 e8be 4667 c7be b78d 46be
00000170: 88bd 5ebf c79e 64bf 7b34 12bf e327 42bf
00000180: 1446 03bf e96d 0bbf 44a2 4cbf 4483 4ebe
00000190: d840 86bf 520c 1fbe 59da 39bf 9730 51be
000001a0: fede 50bf d69d 2ebd 105f d2be ebaa 04bf
000001b0: 196b 0dbf 90f3 22bf 0288 ecbe 89d1 e0be
000001c0: 401d c0be 6246 b0be 1361 01be a1ea 39be
000001d0: e5f2 3dbf 11c6 74be 638f 73be 6da2 0fbf
000001e0: a2c1 ebbe e9a6 f7be f369 fb3e d757 ffbe
000001f0: 2288 d6be 3fc0 11bf 1b61 5e3e 4b25 26bf

fc2.weight f4 [64, 128]
-0.20027092 0.43178877 -0.22167039 -0.034986276 0.3077851 -0.08082285 0.09954235 0.15766697
0.31606305 -0.12258333 -0.53120804 0.039404064 0.0211179 0.0007753159 0.06707185 0.21496017
0.0895128 0.27697968 0.2104843 0.30865622 -0.48231068 0.11001265 -0.20904607 -0.1275095
-0.33414048 -0.13702157 -0.23138241 0.065179996 0.69316053 -0.07208452 -0.29607305 -0.18672077
-0.242658 0.20975745 -0.12494205 -0.035455916 -0.08430129 0.28730652 -0.035205342 0.28406057
-0.12078445 -0.14101106 -0.003835784 -0.37295645 -0.17639987 0.3719977 0.06737287 -0.025594847
-0.02329417 0.27128905 0.0082560405 -0.28381097 -0.5781826 0.37302312 -0.36617973 0.17666003
-0.90305674 0.11153592 -0.18003204 -0.17874223 -0.07885973 -0.32664973 -0.29655072 0.17594038
0.17495036 -0.022670664 -0.055358805 -0.14848398 -0.092392944 -0.07264258 0.38813323 -0.110256776
0.26290092 0.2603394 0.487535 -0.49922866 0.43045408 0.62525135 0.5353963 -0.018118339
1.6208607 0.22371764 -0.36205402 0.1854516 0.5229148 -0.14409018 0.739285 0.31159067
-0.015546681 0.7391196 -0.12969282 -0.10557075 0.14218768 0.3057996 0.15509385 -0.020462997
0.20493951 0.18372312 -0.08563486 0.13328083 0.13685864 0.21720459 -0.18526284 -0.1626801
0.22906291 -0.3913371 0.3438035 0.081056245 0.22132249 -0.121130444 0.16488858 -0.16847055
0.24676625 -0.3237939 -0.2725212 0.56315887 -0.25595737 -0.15061264 0.44910198 0.60192585
0.15523973 0.0541099 -0.24120909 0.29250112 0.0059221103 0.37183714 -0.64077735 0.14497682
-0.16965617 -0.27254027 -0.8279208 -0.19612917 -0.021849798 0.14482495 -0.7090215 0.2722844
-0.19707365 0.5233242 0.2654565 0.100504376 -0.105163224 0.11339958 -0.35212642 -0.7959
0.32294834 -0.04224067 0.44221604 -0.40672934 0.03949363 -0.32223415 0.070064954 -0.23981203
-0.069973044 -0.11686679 -0.21178977 0.05282684 0.22788507 0.022086054 -0.4555562 -0.16420028
0.094613 0.17365494 7.3809315e-05 -0.060884647 0.0019034063 0.32979223 0.34562173 0.027596397
-0.1635577 0.058973424 0.29656407 -0.085076824 0.1613817 -0.23961623 0.361496 -0.074798875
-0.0417569 -0.292728 -0.15112376 -0.099904545 -0.05501965 -0.00563027 -0.014261841 0.00025086745
-0.17202935 -0.020566164 -0.3347092 0.09570003 -0.46870437 0.42593405 0.14344539 -0.19420306
0.30706307 0.17795359 0.5963783 -0.061858255 -0.3461085 -0.4816436 -0.057768513 -0.18802613
-0.18601847 -0.28707138 0.042963717 0.42009595 -0.48968607 -0.05846109 -0.38899732 -0.34250608
-0.762366 -0.21371877 0.04645712 -0.37379077 -0.10021459 0.22649628 -0.032217715 -0.119498655
-0.121670716 -0.54766214 0.1281602 0.16202775 -0.018298069 0.449364 0.011319832 0.11898133
-0.2173667 0.25394756 -0.1058402 0.21653345 -0.08556245 0.054607738 0.27477682 -0.42825055
0.12452579 0.017336752 0.2251862 -0.06482832 0.5007636 0.10818214 0.2745897 0.30228588
0.24068819 0.2630291 -0.011531001 -0.27909198 -0.55956364 0.1679862 -0.5457637 0.5783268
-0.12074656 0.21905906 -0.13276188 0.004535349 -0.171441 0.032829702 -0.10565952 0.11998603
00000000: d213 4dbe 6b13 dd3e 90fd 62be c54d 0fbd
00000010: 0296 9d3e 7386 a5bd dcdc cb3d 7373 213e
00000020: 04d3 a13e f80c fbbd 40fd 07bf 2866 213d
00000030: 72ff ac3c 923e 4b3a f75c 893d 851e 5c3e
00000040: 7d52 b73d 48d0 8d3e 3289 573e 3008 9e3e
00000050: 6df1 f6be 504e e13d 2c10 56be da91 02be
00000060: 7614 abbe 624f 0cbe 83ef 6cbe 177d 853d
00000070: f872 313f 0ca1 93bd e396 97be bb33 3fbe
00000080: 577b 78be a8ca 563e 9ee1 ffbd 393a 11bd
00000090: 28a6 acbd d719 933e 7a33 10bd 6370 913e
000000a0: d65d f7bd 3465 10be c761 7bbb 26f4 bebe
000000b0: 2ba2 34be 7c76 be3e cafa 893d 49ac d1bc
000000c0: 6ad3 bebc 66e6 8a3e 5844 073c ac4f 91be
000000d0: c603 14bf e3fc be3e e97b bbbe 5ee6 343e
000000e0: ba2e 67bf f26c e43d 525a 38be 3408 37be
000000f0: 3681 a1bd a23e a7be 7fd5 97be b729 343e
00000100: 3026 333e d4b7 b9bc eabf 62bd 2f0c 18be
00000110: 8338 bdbd a2c5 94bd 66b9 c63e 4ece e1bd
00000120: f39a 863e 354b 853e 309e f93e e69a ffbe
00000130: 7a64 dc3e 7910 203f bb0f 093f e96c 94bc
00000140: 5d78 cf3f 3d16 653e 255f b9be 06e7 3d3e
00000150: bfdd 053f 608c 13be c841 3d3f d088 9f3e
00000160: 82b7 7ebc f136 3d3f 32ce 04be 7a35 d8bd
00000170: a699 113e c491 9c3e ecd0 1e3e 04a2 a7bc
00000180: aadb 513e ea21 3c3e 5461 afbd c57a 083e
00000190: ac24 0c3e e16a 5e3e 8bb5 3dbe 9d95 26be
000001a0: 788f 6a3e 565d c8be 0307 b03e d100 a63d
000001b0: 5da2 623e 3d13 f8bd 8dd8 283e 8b83 2cbe
000001c0: 4bb0 7c3e 50c8 a5be e687 8bbe 2e2b 103f
000001d0: d80c 83be 333a 1abe b2f0 e53e d017 1a3f
000001e0: 2af7 1e3e 58a2 5d3d 84ff 76be b5c2 953e
000001f0: 430e c23b 7061 be3e fc09 24bf ce74 143e
00000200: 59ba 2dbe 668a 8bbe 9ef2 53bf 16d6 48be
00000210: 59fe b2bc fe4c 143e 6f82 35bf dc68 8b3e
00000220: adcd 49be 93f8 053f eae9 873e 3dd5 cd3d
00000230: d15f d7bd 0a3e e83d ea49 b4be 1ac0 4bbf
00000240: 7c59 a53e 8e04 2dbd 246a e23e d43e d0be
00000250: 13c4 213d e0fb a4be 377e 8f3d 4991 75be
00000260: 074e 8fbd db57 efbd 6bdf 58be f560 583d
00000270: b45a 693e d0ed b43c aa3e e9be 1e24 28be
00000280: 76c4 c13d 9ad2 313e 13ca 9a38 2e62 79bd
00000290: b87b f93a 87da a83e 55f5 b03e d711 e23c
000002a0: ab7b 27be 1e8e 713d 3fd7 973e c23c aebd
000002b0: 3f41 253e f55d 75be 0116 b93e 2730 99bd
000002c0: 4809 2bbd 72e0 95be 30c0 1abe c19a ccbd
000002d0: 495c 61bd 217e b8bb 7faa 69bc dc86 8339
000002e0: 7628 30be 5f7a a8bc 015f abbe 61fe c33d
000002f0: 05fa efbe 0714 da3e 59e3 123e 2bdd 46be
00000300: 5f37 9d3e 7739 363e 40ac 183f 155f 7dbd
00000310: 2235 b1be fd99 f6be ad9e 6cbd ec89 40be
00000320: a07b 3ebe 05fb 92be b9fa 2f3d d116 d73e
00000330: 22b8 fabe e574 6fbd a82a c7be f55c afbe
00000340: 6b2a 43bf 18d9 5abe d249 3e3d 8161 bfbe
00000350: 4f3d cdbd a4ee 673e b9f6 03bd b6bb f4bd
00000360: 7f2e f9bd 9633 0cbf 6d3c 033e 9aea 253e
00000370: d5e5 95bc 0a13 e63e d176 393c 7cac f33d
00000380: 6095 5ebe 6a05 823e bfc2 d8bd f2ba 5d3e
00000390: 5e3b afbd 5dac 5f3d 8caf 8c3e a843 dbbe
000003a0: 6107 ff3d ce05 8e3c 3697 663e b6c4 84bd
000003b0: 0b32 003f 998e dd3d 0597 8c3e 37c5 9a3e
000003c0: f776 763e c0ab 863e 86ec 3cbc 25e5 8ebe
000003d0: 903f 0fbf 9304 2c3e 2bb7 0bbf 3a0d 143f
000003e0: f949 f7bd 0551 603e bbf2 07be 449d 943b
000003f0: 3b8e 2fbe 7078 063d 0564 d8bd 3cbb f53d

fc2.bias f4 [64]
0.014205305 0.71114653 -0.08587987 -0.15126605 -0.06657885 -0.109549515 -0.09750368 -0.028004518
-0.13785061 -0.1665244 1.3493711 -0.15551412 -0.017956372 0.31011775 -0.103792675 -0.070585996
-0.052620266 -0.08012487 0.593726 -0.23986149 -0.10255265 0.58444494 -0.09322662 -0.09886655
-0.09197467 -0.019830886 0.3378228 -0.08303321 -0.13432512 -0.124312565 0.7742154 -0.025540821
-0.17739421 -0.015631594 -0.02464356 -0.12428455 -0.08452912 -0.047214273 -0.026878929 -0.10991632
-0.09998725 0.8016705 -0.06688455 -0.16331384 0.609895 -0.027366828 -0.23152928 -0.27718347
0.6429382 -0.1928289 -0.106443785 -0.19955112 -0.16994566 -0.013587985 -0.13028991 -0.07033031
-0.114863664 -0.08178955 -0.30507576 -0.30244416 -0.09095563 -0.17666209 0.48022068 0.5127473
00000000: 5ebd 683c b30d 363f c9e1 afbd 7de5 1abe
00000010: 7e5a 88bd 7f5b e0bd 02b0 c7bd bb69 e5bc
00000020: b628 0dbe 5f85 2abe 31b8 ac3f 183f 1fbe
00000030: 3e19 93bc c1c7 9e3e 4191 d4bd 648f 90bd
00000040: 5988 57bd 8218 a4bd 6dfe 173f 409e 75be
00000050: 2007 d2bd 2f9e 153f 99ed bebd 8c7a cabd
00000060: 375d bcbd 6274 a2bc 1cf7 ac3e 510d aabd
00000070: 868c 09be 9697 febd fb32 463f fc3a d1bc
00000080: d4a6 35be d40d 80bc 4be1 c9bc e688 febd
00000090: 9a1d adbd c163 41bd 3331 dcbc cf1b e1bd
000000a0: 1ec6 ccbd 473a 4d3f c4fa 88bd be3b 27be
000000b0: 1422 1c3f 6630 e0bc 0316 6dbe feea 8dbe
000000c0: 9997 243f f074 45be 33ff d9bd 2157 4cbe
000000d0: 3c06 2ebe 24a0 5ebc b86a 05be 5609 90bd
000000e0: a43d ebbd 4881 a7bd e432 9cbe f6d9 9abe
000000f0: f246 babd e8e6 34be 7cdf f53e 6843 033f

fc3.weight f4 [1, 64]
0.04445866 0.047746282 0.013094528 -0.038278412 -0.029014533 0.006019438 -0.0046549547 0.0837997
-0.023857944 0.003165705 0.18342678 -0.02149469 0.030297125 0.019033385 0.022515664 -0.002656968
-0.028571213 -0.030532796 0.034604587 0.005582037 0.0036079818 0.037597828 -0.0021015552 0.011598367
0.004831901 -0.007835165 0.037432663 -0.0147546455 -0.017228711 0.0010488704 0.035526022 0.027892338
0.05128809 0.014406066 0.0077391462 0.013192229 -0.0026942233 -0.024529686 0.0013728346 0.006590789
0.021913966 0.05527209 0.023145847 0.03714123 0.039940644 -0.026948981 0.00783797 0.00995353
0.041049894 0.04764758 -0.054892577 -0.010254397 -0.00921943 -0.025427217 -0.019261247 0.0055184322
0.0016654814 -0.014351381 -0.10920453 -0.08443836 0.0055265236 0.024884552 0.023662796 0.025549626
00000000: 491a 363d 9b91 433d 6e8a 563c d3c9 1cbd
00000010: e3af edbc b53e c53b 9788 98bb 2d9f ab3d
00000020: bc71 c3bc b777 4f3b 3bd4 3b3e a215 b0bc
00000030: ad31 f83c e7eb 9b3c c572 b83c 8720 2ebb
00000040: 2d0e eabc ea1f fabc 8abd 0d3d 85e9 b63b
00000050: e473 6c3b 2e00 1a3d 3fba 09bb 1407 3e3c
00000060: ec54 9e3b 105f 00bc fe52 193d 78bd 71bc
00000070: 3a23 8dbc 407a 893a bc83 113d 797e e43c
00000080: 7613 523d 6c07 6c3c aa98 fd3b 3824 583c
00000090: 9191 30bb 7bf2 c8bc aff0 b33a 8cf7 d73b
000000a0: eb84 b33c fd64 623d 5c9c bd3c 6721 183d
000000b0: cd98 233d 1cc4 dcbc d46a 003c 2114 233c
000000c0: ef23 283d 1c2a 433d 0ad7 60bd 0f02 28bc
000000d0: 180d 17bc bd4c d0bc c3c9 9dbc f7d3 b43b
000000e0: 484c da3a 0e22 6bbc a0a6 dfbd 05ee acbd
000000f0: d717 b53b b0da cb3c 7bd8 c13c 734d d13c
